gain/classfy_weight/6724235619583583672/G_b1.npy (npy, 2432 bytes, 1 tensors)

array f4 [576]
000000 b7 f6 ed bb 20 11 f5 bb 8a 3e c4 3d 8a 0c 0c bc
       -0.0072620767 -0.007478848 0.09582241 -0.008547911
000010 d1 4d 0c bc 18 d1 2b bd f6 92 39 bd 94 9b 6e bc
       -0.008563475 -0.041947454 -0.04530617 -0.01456346
000020 bb ff 2a bc 07 0b 08 bc 7c 12 43 bc 93 7b e1 bb
       -0.010436947 -0.00830341 -0.0119062625 -0.0068811863
000030 9f 25 05 bc d0 7f 43 bd 0c 56 4a bc a9 3f 60 bc
       -0.008126645 -0.047729313 -0.012349617 -0.013687053
000040 a1 e2 26 bc 30 32 7b bc d9 22 88 bc 71 db 16 bc
       -0.0101858685 -0.01533179 -0.01661818 -0.009207592
000050 76 28 fc bb ca 93 0d bc db 72 4b bc 15 0d 1b 3d
       -0.007695253 -0.008641193 -0.01241752 0.037854273
000060 ee b7 17 bc 12 34 c0 3d 1b 73 00 bd df df 14 bc
       -0.009260161 0.093849316 -0.031359773 -0.009086578
000070 2e 79 1f bc 54 5b 42 3c a8 03 bd bc 15 fd f3 bb
       -0.009733481 0.011862595 -0.023073032 -0.007445941
000080 95 8c c0 bc 4c 45 7c bc c2 83 d4 bc 88 66 17 bc
       -0.023504535 -0.015397381 -0.025941733 -0.009240754
000090 ad 2b 2e bc 65 59 fc bb e8 cc a9 bc 75 43 ee 3c
       -0.01063053 -0.0077010863 -0.02072759 0.0290849
0000a0 ab e8 c7 3c de f3 9d bc 1f ed d8 bb 7d 86 1b bc
       0.024402937 -0.019281324 -0.006620064 -0.009492514
0000b0 ba ea 1c 3e 52 c6 a9 bc d4 62 e5 bb 72 1a 14 bd
       0.15323916 -0.02072445 -0.0070003066 -0.036158033
0000c0 5c d7 db bb 3d 14 35 bc eb ec 4c bc b6 b6 18 bc
       -0.0067090224 -0.011052188 -0.0125076575 -0.009320905
0000d0 7a b4 20 bc 8c 2a 4a bc a1 4d ae 3d a2 dc 2c bc
       -0.009808654 -0.0123392455 0.085109 -0.01055065
0000e0 aa 00 68 bc c7 5d 14 bc 08 89 2e 3c 9b 2c 8f bc
       -0.014160315 -0.009055561 0.010652788 -0.017477324
0000f0 0c 5c 12 bc b0 5a b1 bc 7a 2a 45 bc bb 67 de bb
       -0.0089330785 -0.021649688 -0.012034053 -0.006787268
000100 5b 39 60 bd 6d 74 95 3d a7 dc 6c bc 28 ae 9f bc
       -0.0547422 0.07297597 -0.0144569045 -0.019492224
000110 14 17 1b bc 8b 6b ff 3c 11 83 0a bc 7a ac 71 bc
       -0.0094659515 0.03117921 -0.0084541 -0.014750594
000120 43 a3 27 bc 8e f1 7a bc dc f8 09 bd 66 a4 b3 3d
       -0.010231796 -0.01531638 -0.033684596 0.08771591
000130 30 17 6a bc a7 cd 1c bc 9e 34 1c bc 88 c9 1b bc
       -0.014287755 -0.009570516 -0.009534029 -0.009508498
000140 ba 1f 68 bd 08 e2 3a bc df f1 e9 3d ac 92 09 bc
       -0.05667088 -0.011406429 0.114230864 -0.008396786
000150 54 f0 07 bc 48 cf 8e bc 09 11 2a bc 8b 6e e2 bb
       -0.008297045 -0.017432824 -0.010380038 -0.0069101504
000160 81 17 84 3d e5 72 4a bc 1f 9f 26 bc bd 39 4a bc
       0.064497955 -0.012356495 -0.010169773 -0.012342867
000170 9c 14 19 bc e0 9e 36 3c 18 89 f2 bb 19 cc 0c bc
       -0.009343293 0.011146277 -0.0074015968 -0.008593583
000180 4d 70 d0 bc 30 6f 90 bc 75 08 11 bc 33 c2 23 bc
       -0.025444174 -0.017631143 -0.008852114 -0.009995031
000190 8c 79 e1 bb 61 cd 0f bc 01 5b 5f bc 71 6c 6a bb
       -0.0068809446 -0.0087769935 -0.013632537 -0.0035770203
0001a0 d3 f5 1b bc 20 b1 77 bc a4 22 1c bd 63 13 2d bd
       -0.009519058 -0.0151179135 -0.038118973 -0.042254817
0001b0 5b 35 42 bc fc 1d f9 bb 38 19 1e bc 0b d6 62 bd
       -0.011853541 -0.0076024514 -0.009649567 -0.05537991
0001c0 50 aa 02 bb 4e 4a f3 3d 4d 0b 05 bc 8d ba 40 bc
       -0.001993794 0.11879407 -0.00812037 -0.011763227
0001d0 c0 be 2d bc df dc 5e bc d5 17 08 bd 62 d0 08 bc
       -0.01060456 -0.013602464 -0.033225853 -0.008350464
0001e0 a7 9d 06 bd 16 73 fb bc 63 75 e2 bb 1b fd f0 3d
       -0.032865193 -0.030694526 -0.0069109662 0.11767026
0001f0 42 51 1d 3d d0 6a 03 bc ba 49 4b bc a7 bf 24 bc
       0.03840757 -0.008021072 -0.0124077145 -0.010055459
000200 60 57 17 bc 4e 0a 06 bc aa 0e 56 3d 32 17 b5 bc
       -0.00923714 -0.008181168 0.05226008 -0.022105787
000210 b3 05 8e bc 8c 53 2e 3a a0 5f 08 3d ff 8d ea bb
       -0.017336702 0.00066500227 0.03329432 -0.0071580405
000220 e9 e7 6d bc 3d 93 f0 bb 93 29 0b bc 0a 66 83 bb
       -0.014520624 -0.007341771 -0.008493799 -0.0040099667
000230 9f ce 37 bc 38 46 24 bc b7 91 40 bc 1c 19 0f bc
       -0.011218696 -0.010026507 -0.011753491 -0.008734014
000240 1e 47 42 bc 5d 13 a3 bc af d7 2b bc e4 cb ba 3a
       -0.011857776 -0.019906694 -0.010488435 0.0014251438
000250 1b 4f 17 bc 58 3a 22 bc 93 3a 1c bc dc 89 0d bc
       -0.009235169 -0.009901606 -0.00953545 -0.008638825
000260 51 d4 16 bc 1a 07 07 bc c6 78 1c bd 2c 7a 9e bb
       -0.009205894 -0.008241439 -0.038201116 -0.0048363414
000270 c0 35 37 bc 10 53 21 bd e1 1c 68 bc 71 58 e2 bc
       -0.011182249 -0.039385855 -0.0141670415 -0.027630063
000280 c9 90 05 bc 3f 30 a7 bb ff c5 76 bc c9 36 87 bc
       -0.008152195 -0.005102187 -0.015061854 -0.016505616
000290 8d 6f d7 3b d1 48 27 bd 60 da fc bb 55 eb 87 3d
       0.006574577 -0.040840928 -0.007716462 0.06636683
0002a0 d4 df 16 bc de 7e 22 bc d1 fb 20 bc da bf 0a bc
       -0.009208638 -0.009917943 -0.009825663 -0.008468593
0002b0 7a a0 5a bc 40 d0 c7 bb e0 b4 46 bc ea 10 89 bc
       -0.013343925 -0.0060978234 -0.012128085 -0.016731698
0002c0 ca e2 1c 3a c2 af ac bc 3c 23 e8 3c 12 55 2b bc
       0.0005984722 -0.021079902 0.028337114 -0.010457294
0002d0 c0 39 11 bc 01 74 39 3d 08 4e 67 bc e4 33 25 bd
       -0.008863866 0.045276646 -0.014117725 -0.04033269
0002e0 c2 ab 9d bb 41 39 e0 3c e7 89 42 bc 4a 9d 43 bc
       -0.004811735 0.02737105 -0.011873699 -0.011939356
0002f0 6c 95 bf bc e3 27 03 bc 9a a9 0a bc d3 5e 81 3d
       -0.02338668 -0.008005115 -0.008463288 0.063169144
000300 54 4d 54 bc 96 56 f4 bc 57 1d 24 bc 09 2f bd 3d
       -0.01295789 -0.029826444 -0.010016761 0.09237487
000310 c1 db 0b 3d 61 f0 e9 bc ac 28 1b bc ea 9d cf bc
       0.03414512 -0.028557004 -0.009470146 -0.025343854
000320 33 09 08 bc 11 ab 00 bc e2 7e 7b bd 17 2a 2c bc
       -0.0083029745 -0.007853285 -0.0614003 -0.010508082
000330 38 fa 18 bc e5 93 42 bc e2 30 b1 3c a6 5c 5c bc
       -0.009337001 -0.011876081 0.021629754 -0.0134498235
000340 dd 12 de bb e8 4e 0b bc 54 43 0a bc a4 d7 1b bc
       -0.006777151 -0.008502699 -0.008438904 -0.009511862
000350 d7 c3 10 bd 1d 6c fb bb b2 b6 92 3d 4e 3e c4 bb
       -0.035343017 -0.0076728 0.071637526 -0.0059888726
000360 26 e7 87 bc 9d 20 5e bc ed d4 a9 bc 46 61 ca 3c
       -0.016589712 -0.01355758 -0.020731414 0.024704587
000370 5e 55 07 bc fd f3 35 bc 73 43 c3 bc 4f 57 45 bb
       -0.008260099 -0.011105535 -0.023835873 -0.0030111854
000380 7c 9e 1b 3c f3 54 f7 bb 04 d4 df bb 51 f1 3b bc
       0.009498235 -0.0075479685 -0.006830694 -0.0114711085
000390 62 35 ba 3c df 72 09 bc 40 64 fa bc e9 5c 6a bc
       0.022730533 -0.008389204 -0.030565381 -0.014304378
0003a0 a5 f0 50 3c 4d ed e5 bb 8a 4c ee 3c 4d 35 01 bd
       0.012752687 -0.007016814 0.029089231 -0.031544972
0003b0 e9 ba b1 3d 44 14 c5 bb 37 10 37 bc 10 23 12 bc
       0.086782284 -0.0060143787 -0.0111732995 -0.008919492
0003c0 60 95 19 bc 4a d2 d9 bc 23 ed 90 bc da a2 e6 bc
       -0.009373993 -0.026589531 -0.0176912 -0.028153826
0003d0 88 ce 39 bc f0 87 7b 3d d8 5f 1f bc 70 89 c4 3c
       -0.011340745 0.061408937 -0.009727441 0.023991317
0003e0 b9 05 3d bc f7 8d 11 bc 29 08 21 3d 43 c8 8e bc
       -0.011537009 -0.008883945 0.039314423 -0.017429477
0003f0 fa 1a 4f bc bb a0 1a bc 05 92 94 bc d8 07 f3 bb
       -0.012640709 -0.009437735 -0.018136034 -0.0074167065
