gain/weight/D_b1.npy (npy, 1472 bytes, 1 tensors)

array f4 [336]
00000000: 9c70 62bd fe60 1b3e 1a1b 0dbd cf87 56bd
00000010: 8691 24bd 153e e5bc a720 36bd 3833 133e
00000020: e8f2 5fbd 294e 20bd 5683 02bd 6703 343d
00000030: ec25 6bbd 8568 64bd 5db0 9bbc 7d12 31bd
00000040: c31d 39bd 5b83 3e3d 449c 063e 7287 103e
00000050: 42cd abbc 985f 23bd 73f2 f93d f66a 38bd
00000060: f1e3 683d 1d46 65bd 7daf 873d 346c a7bb
00000070: 3726 61bc b26c 71bd e1e8 ee3d 0b1b 853d
00000080: 1f96 0fbe b743 3ebd ec66 a1bc 7cff c9bd
00000090: b39b 0abd d941 283e 8f64 1cbd cd33 be3a
000000a0: f4ae 01bd e08a 32bd ee2e 25bd cb0f 093d
000000b0: 9528 a53c ef17 03bd 7ed3 5e3d 4c50 e73c
000000c0: b125 32bb c591 0cbd da3a a7bd 0e11 d8bc
000000d0: 9070 63bd 8e7f 45bc a209 39bd 21cf 6ebc
000000e0: fb43 1abe f9cf 053e 41f2 313c acd5 82bd
000000f0: 4df1 3abd e96f b53c 51f9 0dbd 1cd0 b7bd
00000100: a989 c2bc 0ab1 423c 0e90 213e 648c ac3d
00000110: a75c d6bc 656e 093d 485e 603d 7434 873e
00000120: d91b 0c3e 6eea a7bc e189 29bd c553 53bd
00000130: 37a9 c6bc 5270 8dbc b49a 2e3d ad3e c93b
00000140: 0927 18bd 7a46 34bd 0b67 2abd fb8f b0bb
00000150: 1c53 95bd 966a 87bb 6582 013e a778 eb3d
00000160: 087e e93c dd6e 57bb 7538 8fbd 7d2e b33c
00000170: 8e1f 73bd e54f 2fbd 0385 52bc 88fd 55bd
00000180: c606 3bbd 9b73 a1bd 537c c03c 8c28 593e
00000190: c57e ccbc af27 51bd ae55 103d 1e61 1abd
000001a0: 2d5b ddbc 9b0c e9bd e959 69bd bfbe 0abc
000001b0: 770a 813d d09f 5bbc 5cd0 07bd 693d 75bd
000001c0: d791 e3bd bd99 453d 84e5 31bd 6b56 e1bd
000001d0: b175 e83d 27ec 893d 3040 193c 8959 003d
000001e0: 8475 ec3d 5aa0 b7bc 037e f53c 7abc c1bc
000001f0: 02ec 5fbc 463a 43bd 8a40 5dbd 42fa 32bd
00000200: d25e 593c 3de0 003d 2b00 20be c5f8 08bd
00000210: 50ec 133c 4eeb 07bc 2e3a 3fbd c95d 903d
00000220: 92eb b13c 9769 41bd 2afa 843c df25 78bd
00000230: e802 3bbd e665 d0bd 42a8 3fbd 1444 b3bc
00000240: cab4 aa3c 7228 7fbc 1cab 6fbd 5461 093e
00000250: 0fd9 37be 8e51 9e3d 0b75 f7bc 45ec 9ebd
00000260: c5a3 af3d 226d c4bd f89b ecbd 5c20 863e
00000270: 2c77 19bd f626 c9bc 6698 7cbd 8c30 02be
00000280: 1acb 88be f44c 113d f3e2 e13d f73d 343d
00000290: e048 cbbd 8440 64bd 5d74 96bc 2f9d f5bc
000002a0: 65c2 f83d 7e8d e7bc b066 81be 55d3 de3b
000002b0: c7c5 bebc bc07 3abc 077b 803d 404d e7bd
000002c0: 5d9a babc 240c 19bd 0aa8 29bc 6632 56bd
000002d0: 8a0d 42bd f6b1 563d d213 21bd b6f5 3c3c
000002e0: f6e2 2cbd c93e 1f3d 8e39 6abc fa7c 5bbd
000002f0: 4bf9 133d b8af 613d f761 9abd cffb ddbc
00000300: a69d 7bbd 7fde 40bd 5d47 2c3c 14b2 1a3e
00000310: baa0 6b3d affa 603d 0bbd 033e 32e5 a3bc
00000320: f344 b03d 46f7 043e 0378 4fbd b181 51bd
00000330: d042 023e c6b3 13bd 5588 f73c bc79 e9bb
00000340: cdba 19be 6dbd d7bb 7674 9cbd 6a0c 1c3e
00000350: b95d 9cbc 1e78 57bd a742 fdbc 110e fcbc
00000360: 24b8 a13c 47e6 b2bd 7199 963d fc1c 00bd
00000370: 0634 12be 371c 95bd 5a1f 78bd a80b e2bc
00000380: 9e9a 04bd 259d 5ebc 8e2d 9bbd 4570 c9bd
00000390: 6a46 26bd affb bcbc bdd2 94bd ac68 0bbe
000003a0: 3baf 2c3d 644a 1abd eba9 50bd b15e 3ebc
000003b0: 74e8 7bbd be9b 5fbd bb75 413e 9b9c 55bd
000003c0: 05a3 6a3d 60e4 a8bc e8f9 22bd 8945 b9bc
000003d0: 6693 c03c b020 423d 3829 80bd a105 71bd
000003e0: d047 cdbc 278b febc 1935 873d cc2b 18bd
000003f0: c8af 38bc c940 0abe 7de5 9a3d 4dc6 65bd
-0.055283174 0.15173718 -0.034449674 -0.05237561 -0.040177844 -0.027983705 -0.044464733 0.14375007
-0.054675013 -0.03913704 -0.031863533 0.043948557 -0.057409212 -0.05576374 -0.019004995 -0.043230522
-0.0451944 0.04651199 0.13145548 0.14114168 -0.020971898 -0.039886087 0.12204447 -0.04502388
0.056858007 -0.05597507 0.066252686 -0.0051093344 -0.013742021 -0.05894155 0.11665512 0.06499299
-0.1402211 -0.046451297 -0.019702397 -0.09863183 -0.033839893 0.16431369 -0.038181838 0.0014511287
-0.03166099 -0.043589473 -0.04032796 0.033462327 0.020160953 -0.032005247 0.054400913 0.02823653
-0.002718311 -0.034318704 -0.08165522 -0.02637532 -0.05552727 -0.012054337 -0.045175202 -0.014575751
-0.15064995 0.13067617 0.0108609805 -0.06388411 -0.04564028 0.02214809 -0.034661595 -0.089752406
-0.023747282 0.01188303 0.15777609 0.08425215 -0.026167227 0.033552546 0.054777414 0.26407206
0.13682498 -0.020497527 -0.041391257 -0.05159356 -0.02425061 -0.017265473 0.042628005 0.0061415047
-0.0371466 -0.044012524 -0.041602176 -0.0053882576 -0.072912425 -0.004132579 0.12647398 0.11497622
0.02850248 -0.0032872476 -0.0699319 0.021872753 -0.059356265 -0.042800803 -0.012849095 -0.05224374
-0.045660757 -0.07883378 0.023496782 0.21206874 -0.024962792 -0.051063236 0.03523796 -0.037690274
-0.027021015 -0.113793574 -0.05697051 -0.008468329 0.06300824 -0.0134048015 -0.03315769 -0.05987302
-0.11111801 0.04824232 -0.043431774 -0.11002811 0.11350573 0.067344956 0.009353682 0.031335387
0.11545852 -0.022415329 0.029967314 -0.023649443 -0.0136671085 -0.047662996 -0.054016627 -0.043695696
0.013267236 0.03146385 -0.15625064 -0.03344037 0.009028509 -0.008295847 -0.046686344 0.07049138
0.021718774 -0.04721984 0.016232569 -0.06058299 -0.04565707 -0.101756856 -0.046791323 -0.021883048
0.02083816 -0.015573608 -0.058512792 0.13416034 -0.17953895 0.07730399 -0.030207178 -0.077599086
0.085761584 -0.09591128 -0.11553186 0.26196563 -0.037467167 -0.02455471 -0.061668776 -0.12713832
-0.26717454 0.03547378 0.11029615 0.044004407 -0.09926009 -0.05572559 -0.018366033 -0.029982178
0.12146453 -0.02826571 -0.25273657 0.006800095 -0.023287667 -0.011354383 0.062734656 -0.11294031
-0.022778684 -0.037365094 -0.010355005 -0.052294157 -0.047376193 0.05241581 -0.039325543 0.011533191
-0.042208634 0.038878236 -0.014295949 -0.053585984 0.036126416 0.05509922 -0.075382166 -0.02709761
-0.061429642 -0.04708719 0.010515061 0.15106994 0.057526328 0.05492657 0.12865083 -0.02000675
0.08606901 0.12984952 -0.05065156 -0.051149074 0.127208 -0.036060117 0.030216375 -0.0071251076
-0.15012665 -0.0065838606 -0.07639401 0.1523911 -0.01908766 -0.052604787 -0.030915571 -0.030768426
0.019741125 -0.08735328 0.073534854 -0.03127764 -0.14277658 -0.07280772 -0.060576774 -0.027593449
-0.032374017 -0.013587271 -0.07577048 -0.09835867 -0.040594496 -0.02306923 -0.07266758 -0.13614148
0.0421593 -0.0376686 -0.050943296 -0.011619256 -0.06150098 -0.054591887 0.18892567 -0.052151304
0.057284374 -0.02061671 -0.03978911 -0.022616165 0.023507785 0.047394454 -0.06257862 -0.05884326
-0.025058657 -0.031072212 0.066019244 -0.037151143 -0.011272378 -0.13501276 0.07563303 -0.056097317
