gain/weight/D_b3.npy (npy, 1472 bytes, 1 tensors)

array f4 [336]
-0.014148139 -0.015381559 -0.027787901 -0.012440631 -0.012768792 -0.025384353 -0.002397196 -0.013766739
-0.011960161 -0.018675264 0.024871789 0.016904445 0.016475106 0.019035857 -0.026500462 -0.036473177
-0.021264672 -0.033397023 -0.009967435 -0.04126515 -0.032669343 -0.043183997 -0.01760647 -0.035555217
0.018514263 0.019189548 0.019962585 0.013769973 -0.029732104 -0.017424544 -0.0472107 -0.020373523
-0.042767882 -0.020597737 -0.040406592 -0.01645637 -0.018053573 -0.035950497 0.019202635 0.014693849
0.018203065 0.021592509 -0.035450984 -0.04489293 -0.013269234 -0.03314275 -0.021557823 -0.010374825
-0.03148791 -0.017569084 -0.022786038 -0.016779782 0.021509433 0.018843269 0.020452 0.018680561
-0.056539465 -0.03787481 -0.031249264 -0.04313199 -0.034398362 -0.04622752 -0.031852324 -0.031702258
-0.015610067 -0.033223063 0.019208299 0.01785716 0.021184992 0.021249525 -0.02499477 -0.032682754
-0.02239647 -0.023518085 -0.036816996 -0.03453355 -0.05281671 -0.044414572 -0.016484616 -0.021826066
0.018023493 0.015487997 0.019892026 0.01873554 -0.0153780775 -0.025116302 -0.04109904 -0.005983767
-0.017418796 -0.026627632 -0.026897298 -0.050190017 0.0050402484 -0.02902273 0.018739263 0.01943741
0.018984422 0.0139847025 -0.020144684 -0.02430114 -0.036063448 -0.020032544 -0.02081549 -0.024317198
-0.021511998 -0.05744342 -0.011062191 -0.021571383 0.015471829 0.016193125 0.017681666 0.018536083
-0.02981928 -0.03682376 -0.042182982 -0.022095872 -0.013340328 -0.039083548 -0.025421953 -0.027373213
-0.012951996 -0.01645238 0.019119523 0.021970842 0.019798314 0.015980564 -0.014745186 -0.030208204
-0.02331555 -0.023350397 -0.02638321 -0.05789694 -0.049177725 -0.036235236 -0.002693877 -0.024895888
0.018631386 0.021257209 0.017613677 0.012826064 -0.04814018 -0.051770363 -0.05326453 -0.042073436
-0.05406526 -0.036031596 -0.057252154 -0.03199165 -0.03006554 -0.035692673 0.015487282 0.015540794
0.015019016 0.01728296 -0.020761542 -0.0029407234 -0.0443009 -0.020639123 -0.010021189 -0.016889367
-0.024127463 -0.02862382 -0.005343812 -0.027260717 0.020008076 0.017463215 0.018647622 0.01768992
-0.015479747 -0.019797042 -0.041820094 -0.002011473 -0.049634557 -0.029482652 -0.03426288 -0.035477877
-0.016919807 -0.013560347 0.01699718 0.018867707 0.016677106 0.022094274 -0.016797967 -0.016390251
-0.017930819 -0.01939412 -0.025633385 -0.039149724 -0.03314283 -0.02144594 -0.02275212 -0.055549778
0.0195577 0.017057326 0.016023913 0.01665896 -0.030484928 -0.03354921 -0.027580831 -0.03164234
-0.03507663 -0.05441717 -0.04829076 -0.059444066 -0.014349416 -0.048501346 0.012550344 0.016653867
0.014415149 0.016318848 -0.03724272 -0.02511683 -0.034600172 -0.016804956 -0.019290024 -0.051021043
-0.041877996 -0.049222544 -0.018317329 -0.018095702 0.015716217 0.01820672 0.015060786 0.013505509
-0.03963246 -0.04405522 -0.044550132 -0.03176175 -0.040179096 -0.045864724 -0.031618387 -0.04370521
-0.016311863 -0.05940105 0.018865181 0.01462587 0.018932967 0.016331904 -0.04697596 -0.0364509
-0.024860457 -0.019894907 -0.035765074 -0.051748745 -0.039327238 -0.039546482 -0.0025134427 -0.038665567
0.016458804 0.019607117 0.01924874 0.019993054 -0.05299037 -0.04481027 -0.047782235 -0.031059362
00000000: 99cd 67bc ef02 7cbc 74a3 e3bc cad3 4bbc
00000010: 3234 51bc d9f2 cfbc 461a 1dbb e38d 61bc
00000020: 8df4 43bc defc 98bc ecbf cb3c 317b 8a3c
00000030: cdf6 863c 16f1 9b3c 7f17 d9bc e664 15bd
00000040: 4033 aebc 51cb 08bd 744e 23bc a505 29bd
00000050: 4ad0 05bd b4e1 30bd 723b 90bc 59a2 11bd
00000060: 39ab 973c 6633 9d3c 9388 a33c 749b 613c
00000070: be90 f3bc ebbd 8ebc 0260 41bd 60e6 a6bc
00000080: 602d 2fbd 96bc a8bc 6281 25bd 82cf 86bc
00000090: 16e5 93bc d440 13bd d84e 9d3c 78be 703c
000000a0: 981e 953c c6e2 b03c 0d35 11bd a6e1 37bd
000000b0: 3467 59bc b1c0 07bd 089a b0bc 2cfb 29bc
000000c0: 77f9 00bd 0aed 8fbc c9a9 babc c175 89bc
000000d0: 8d34 b03c 335d 9a3c f48a a73c fa07 993c
000000e0: ed95 67bd 9e22 1bbd 75fe ffbc 2bab 30bd
000000f0: 4ce5 0cbd 1159 3dbd 9577 02bd 3ada 01bd
00000100: 5ec1 7fbc e814 08bd b95a 9d3c 2e49 923c
00000110: 268c ad3c 7c13 ae3c d5c1 ccbc 5ade 05bd
00000120: cd78 b7bc 00a9 c0bc 6bcd 16bd 0d73 0dbd
00000130: 5656 58bd 0eec 35bd bf0a 87bc 94cc b2bc
00000140: 01a6 933c 5ec1 7d3c 9af4 a23c 467b 993c
00000150: 55f4 7bbc b4c0 cdbc 7857 28bd 7a13 c4bb
00000160: ddb1 8ebc 3122 dabc b957 dcbc 0c94 4dbd
00000170: ab28 a53b 14c1 edbc 1583 993c 343b 9f3c
00000180: 3885 9b3c 1820 653c 7706 a5bc 2f13 c7bc
00000190: 44b7 13bd 4a1b a4bc 3f85 aabc dc34 c7bc
000001a0: ee39 b0bc cb49 6bbd 313e 35bc 78b6 b0bc
000001b0: 8e7d 7d3c 72a7 843c 24d9 903c fcd8 973c
000001c0: 9047 f4bc 83d4 16bd 10c8 2cbd 6702 b5bc
000001d0: 6491 5abc 1216 20bd b341 d0bc ca3d e0bc
000001e0: 9c34 54bc 24c7 86bc 8ca0 9c3c 32fc b33c
000001f0: 1330 a23c ace9 823c cb95 71bc 3277 f7bc
00000200: 4100 bfbc 5549 bfbc 9a21 d8bc 5725 6dbd
00000210: 956e 49bd 666b 14bd c28b 30bb 76f2 cbbc
00000220: d9a0 983c 9923 ae3c 8f4a 903c 6924 523c
00000230: a32e 45bd 290d 54bd e82b 5abd 3255 2cbd
00000240: 8973 5dbd de95 13bd 3c81 6abd ad09 03bd
00000250: 024c f6bc 7b32 12bd 5ebe 7d3c d09e 7e3c
00000260: 5212 763c fe94 8d3c 1c14 aabc 27b9 40bb
00000270: dc74 35bd 6113 a9bc ea2f 24bc 925b 8abc
00000280: f5a6 c5bc 807c eabc 251b afbb de51 dfbc
00000290: fae7 a33c 040f 8f3c e6c2 983c 73ea 903c
000002a0: c49e 7dbc 682d a2bc 8c4b 2bbd ebd2 03bb
000002b0: 9b4d 4bbd 9a85 f1bc 3c57 0cbd 4051 11bd
000002c0: 689b 8abc 382c 5ebc ac3d 8b3c 7390 9a3c
000002d0: 6d9e 883c 0dff b43c e49b 89bc d944 86bc
000002e0: a7e3 92bc 6be0 9ebc 1bfd d1bc 765b 20bd
000002f0: c7c0 07bd 65af afbc a762 babc 2a88 63bd
00000300: 7837 a03c cebb 8b3c 9544 833c 5f78 883c
00000310: 87bb f9bc e56a 09bd 32f1 e1bc 669b 01bd
00000320: 83ac 0fbd 8ae4 5ebd 88cc 45bd 9f7b 73bd
00000330: d019 6bbc 59a9 46bd f59f 4d3c b16d 883c
00000340: 842d 6c3c 1baf 853c d38b 18bd cfc1 cdbc
00000350: e9b8 0dbd 8caa 89bc 1d06 9ebc 71fb 50bd
00000360: 4388 2bbd 949d 49bd 390e 96bc 703d 94bc
00000370: 4cbf 803c 4226 953c 84c1 763c 3646 5d3c
00000380: a555 22bd 3f73 34bd 337a 36bd 9c18 02bd
00000390: d692 24bd a6dc 3bbd 4882 01bd 3c04 33bd
000003a0: 75a0 85bc 844e 73bd 278b 9a3c 58a1 6f3c
000003b0: 4f19 9b3c 7cca 853c dd69 40bd 8a4d 15bd
000003c0: 28a8 cbbc a5fa a2bc 667e 12bd 7ef6 53bd
000003d0: 9915 21bd 7efb 21bd 92b8 24bb c95f 1ebd
000003e0: 9dd4 863c 1b9f a03c 89af 9d3c 79c8 a33c
000003f0: 6e0c 59bd f98a 37bd 4eb7 43bd 3470 febc
