gain/weight/D_W1.npy (npy, 903296 bytes, 1 tensors)

array f4 [672, 336]
00000000: cefe 8c3d 470c c3bc 8ca4 923d 3e72 8d3d
00000010: b79d 823d f760 423d 3c56 7d3d ad7d f83a
00000020: 6119 ea3d b03d 31bd 4fc7 c23d 33ec bbbc
00000030: 3411 af3d 3b15 57bd 2c57 8f3d cdaf 83bc
00000040: 2913 da3c a92a f43d 4b2c aa3c 2047 703b
00000050: 3dcc eabb 7f17 2ebd 36c6 0fbe 45c4 26bd
00000060: 9acc 8e3d 80a2 453d af19 bcbd 6901 d83d
00000070: 1b33 5e3c 329b 1d3e d9f4 87bd d587 c93d
00000080: 2812 60bd d084 3d3c 63c6 163b 05a7 343d
00000090: 1d27 fa3c 0fbc 8e3d 1708 b1bd f8e3 413d
000000a0: 60cd 4b3d e030 b23d b2f3 d2bc 713d 3e3c
000000b0: 647f f73d 90d2 89bc 0240 71bd 58df c7bd
000000c0: d78c 403c aee8 4dba d9e9 813d eb36 55bd
000000d0: 2ad4 253d 213a 323a f52a 82bd f848 5f3d
000000e0: 57dd 2fbd 17f2 2a3c aaa3 9fbb 3227 38bd
000000f0: 50f0 d33d e1b7 043e b2ef af3d 70f4 3b3c
00000100: ed97 6cbd 976d ca3c 203f 033e 0609 45bd
00000110: 21b7 b3bd 8a88 993d 6a40 f53b 8325 febc
00000120: 434a 96bd fdbc 353d d772 f13c cd03 7c3b
00000130: eafc 25bd cb94 f13c a423 813d d8e3 bb3c
00000140: c2b4 fd3c 2f3e f6bb 9da3 573c c6b7 5fbd
00000150: 311e 833d 5526 c4bd e875 a2bd a0b6 54bc
00000160: 7dda ae3b bde0 a03d ce71 08bd fe4d 8f3d
00000170: b264 7d3c 6e6b 973d 7b9d b03d b156 6e3d
00000180: 3258 bc3d 9264 45bd 252f 9bbd d2f6 f1bb
00000190: 6118 9ebd 9b1c c4bc 9809 fbbb ecd0 6b3d
000001a0: 880e a6bd 38a7 a83b 09f3 54bd 9054 563e
000001b0: db6d 353d 1d7e e03a fefc 123c 0434 093d
000001c0: da23 c9bc db6f 663c ac75 f5bd 2119 94bc
000001d0: b285 703d 4538 e0ba f53d bd3d fd9b e23c
000001e0: 647b 033d 3dde 24bc 9ace 2cbd d6d0 eabc
000001f0: d603 f3bc 2037 01bc 104a 853d 1c31 af3d
00000200: 002f a43c c2b7 c23c c1f1 cdbb 76b7 da3d
00000210: 4e3e df3b d2fe 9dbc 5195 e0bc b636 e5bd
00000220: 9059 d53c f00c 013e d9f8 603c f3d2 07bd
00000230: 6def b3bc 8881 49bd ec54 4abd 6b32 3e3d
00000240: e0f4 9cbd 43fe 353d 3c12 14be 6d84 963c
00000250: 3a6e 1bbc f15a 28bd 7dd9 8a3d 46cd e1bc
00000260: eba7 e2bc 698e 84bc a265 cabc 9192 4ebd
00000270: 4ed9 4d3d 3b9b 4bbc 28dd 123d f2dd b53d
00000280: 0638 b13d e306 96bc f55f 2fbd 4a2b 8c3d
00000290: d101 b5bd 0996 163d 4670 923d 2e57 7d3d
000002a0: cede 193d b37a 0cbc 6bf1 193d ad33 20bd
000002b0: e9ec b6bb fba6 35bc 9219 8cbc 4cac 133d
000002c0: c43e 90bb bf08 003c 18e3 163d 7038 dfbd
000002d0: 2ccb b7bb 7ca5 b03d 16cd 043b d599 e2bc
000002e0: 558b b1bd 938d 11bd 3f83 363d b7b5 5b3c
000002f0: a714 21bd 4158 d0bd 5f92 403d 679f 02be
00000300: c011 debb 8f55 a43d 52a9 2ebd e63e 273d
00000310: 8d41 12be b53a a7bd c220 acbc c3ad 2b3d
00000320: 3791 30bd d5d7 323c d581 0a3d f52e d13c
00000330: acca cf3c c8b3 65bd b94d 64bd 0acb 44bd
00000340: f503 3cbd 183e 9dbd bab4 14bd 9935 1ebd
00000350: 3d20 7b3d f504 4a3d e822 0f3d 4dac 0d3d
00000360: 5e97 afbd a361 e3bc 3ffd 64bd 756e aabd
00000370: e129 9d3d 1e67 2cbb f8a3 413c 528b 973c
00000380: fb7a 223c 2801 063d 5cc6 8e3d bcc8 a2bd
00000390: a265 9fbd 8e6c 89bd 2e33 a7bc 01e6 6fbd
000003a0: dd00 fe3c 6c9e a93d fc90 14bc e2b4 a73c
000003b0: a9ac 403c a529 913d f947 43bc 224a 50bd
000003c0: aa7c 233d c10b 8ebd 5f61 f0bd ecc7 e13d
000003d0: a4d4 4fbd 2f7b 5c3b 1faa 1c3d 1de0 c6bc
000003e0: 5e8c ce3d 7df6 3abd b421 c13c a966 d63c
000003f0: 5a2f 183d d695 9bbb ca50 8f3c f687 22bc
0.06884538 -0.023809565 0.07160291 0.069065556 0.06377738 0.047455754 0.061849818 0.0018958353
0.11430622 -0.04327172 0.09510671 -0.022939777 0.08548203 -0.05251048 0.069990486 -0.01607504
0.026620464 0.11922199 0.020773074 0.0036663488 -0.0071654604 -0.042502876 -0.14040455 -0.04071452
0.069726184 0.048250675 -0.09184586 0.10547144 0.013561989 0.15391234 -0.06638498 0.09840361
-0.054704815 0.0115673095 0.0023006431 0.044104595 0.030536229 0.06969463 -0.08644121 0.04733655
0.049756408 0.087007284 -0.025750969 0.011611328 0.12084845 -0.016824037 -0.058898933 -0.09759396
0.011752329 -0.00078548014 0.06343431 -0.052054327 0.04048554 0.0006798823 -0.0635585 0.054512948
-0.042935695 0.010433695 -0.004871805 -0.044959255 0.1034857 0.12960769 0.0859064 0.011471853
-0.057762075 0.02471046 0.12817049 -0.04810431 -0.087751634 0.07496746 0.0074844854 -0.031023746
-0.07338383 0.044369686 0.029473705 0.0038454414 -0.0405244 0.029489895 0.06305626 0.022935793
0.030969981 -0.007514737 0.013161567 -0.05461862 0.06402243 -0.09577624 -0.07932645 -0.012982994
0.0053361044 0.078553654 -0.033311658 0.06997298 0.015465902 0.073935375 0.08623787 0.058188144
0.091965094 -0.048191614 -0.075773515 -0.0073841596 -0.07719494 -0.023939421 -0.007661056 0.05757229
-0.0810824 0.005146887 -0.05198959 0.20930696 0.04429422 0.0017127428 0.008971451 0.03349687
-0.024553228 0.014064754 -0.11985335 -0.018078389 0.05872125 -0.0017106613 0.09240333 0.027662272
0.032100096 -0.010062751 -0.042189218 -0.028664034 -0.029664915 -0.007886678 0.06508267 0.08554289
0.020041943 0.023769263 -0.006284923 0.10679524 0.006812847 -0.019286547 -0.02741495 -0.11192076
0.026043683 0.12602592 0.013731205 -0.03316016 -0.021964753 -0.049195796 -0.049397394 0.0464348
-0.07663894 0.044431936 -0.14460081 0.018373692 -0.009486729 -0.041102353 0.06779764 -0.027563702
-0.02766796 -0.016181188 -0.024706665 -0.050432745 0.050256066 -0.012427147 0.035855442 0.08880223
0.08653264 -0.01831383 -0.04281612 0.06844194 -0.08838237 0.03676418 0.07150321 0.06185072
0.037566 -0.008574176 0.03758375 -0.039111782 -0.005582441 -0.0110871745 -0.017102037 0.036052987
-0.0044020135 0.007814585 0.036837667 -0.108994365 -0.005608937 0.08625314 0.0020263842 -0.027661243
-0.086691536 -0.035535406 0.04455876 0.013410023 -0.039326336 -0.10173083 0.04701459 -0.1275612
-0.0067770183 0.080241315 -0.042641945 0.04083147 -0.14282818 -0.08165494 -0.021011714 0.04191376
-0.043107238 0.010915716 0.033815224 0.025535086 0.025365196 -0.056079656 -0.055738185 -0.048045196
-0.04590221 -0.07677859 -0.036305167 -0.038625333 0.06131004 0.049321134 0.0349454 0.034588147
-0.08573793 -0.027756518 -0.055905577 -0.08321849 0.076740034 -0.002630658 0.011818878 0.01849905
0.009917016 0.032715946 0.06971428 -0.07948443 -0.07783057 -0.06710158 -0.020410147 -0.05856896
0.031006271 0.0828217 -0.00906777 0.020471994 0.011759915 0.07088021 -0.011919015 -0.05085195
0.03991381 -0.06935836 -0.11737322 0.1102446 -0.0507399 0.003364276 0.038248178 -0.024276787
0.10085367 -0.045645226 0.023575641 0.026171999 0.037154533 -0.0047480864 0.017494578 -0.009920111
