gain/weight/G_b2.npy (npy, 1472 bytes, 1 tensors)

array f4 [336]
-0.029828327 0.02382065 -0.0070936475 -0.0098866755 0.023257663 -0.0073801894 0.013085292 -0.018364538
-0.016739132 -0.020792004 -0.009674108 -0.027897097 -0.018536756 -0.015194981 -0.015204525 -0.0014559252
-0.016887315 -0.01580009 0.021531118 -0.007863672 0.027305031 -0.011903702 -0.03164509 0.001092672
-0.007581198 -0.028639592 -0.009790575 -0.0121879205 0.044932224 -0.009894947 0.039147582 -0.0010441423
-0.032889612 -0.00779177 -0.02708215 0.030906714 -0.015928416 -0.013053591 0.018129164 -0.017499654
-0.02403599 -0.047239035 -0.013276946 -0.011378173 -0.021014394 0.012193013 -0.026668537 -0.011628857
-0.015336286 -0.010234831 -0.019518875 -0.00547213 0.0026818889 -0.018079603 -0.018796973 -0.023079624
-0.0012056108 -0.0007062535 0.015362351 -0.008060096 -0.005214122 -0.009267497 0.021637963 0.027128184
0.012568098 -0.0053566583 -0.015785014 0.002909667 -0.008661292 -0.006840927 0.03527626 0.03172545
0.0037153354 0.0036341266 -0.021568717 0.041850608 -0.0025225263 -0.0008614295 -0.011776303 0.038857523
0.026331658 0.02082311 -0.04836198 -0.00809789 0.014158552 -0.027706254 -0.014367354 -0.01481949
0.0071123703 -0.012051866 -0.0067358725 -0.014558375 0.03928031 0.026070308 -0.0064825006 -0.013099046
-0.014105803 0.007380147 -0.0056335777 0.02282858 0.003918496 -0.010032569 -0.03302076 0.020720227
-0.012344422 -0.011596905 -0.026712978 0.0007085518 0.0068715555 0.015483657 -0.016801123 -0.0362711
0.005965052 0.0064790337 0.018788947 -0.008300974 -0.002704765 0.006561677 -0.007861742 0.007463892
0.026163701 -0.007196627 -0.03740071 -0.009493075 0.020095004 0.005235542 -0.0022182185 0.019893298
-0.026150705 0.0123906955 0.02513593 0.013753445 -0.0147328405 0.011869309 0.0025270465 -0.0019213026
-0.013473617 -0.016300512 0.023561187 0.0003508271 -0.02673752 -0.013427946 0.030083926 0.024653312
0.023824919 0.026829522 -0.009450479 0.027242485 -0.016317429 -0.025307363 -0.010342579 0.0061189947
-0.012511664 0.016334068 -0.014063357 -0.017591015 -0.0107114585 -0.011652976 0.02916853 -0.017531052
-0.028362006 -0.014947284 -0.010632797 -0.03311407 -0.01049372 -0.020449627 -0.014686327 0.0038792072
0.011594477 -0.00043042196 -0.013554929 0.017310314 -0.007827658 -0.019376125 0.0030563134 0.022905642
0.0068710605 -0.0077432254 -0.01478388 -0.007021742 -0.011187633 0.01240573 0.012905067 0.008136618
6.586569e-05 -0.013245047 -0.016385563 -0.034483086 -0.019164313 -0.009454211 0.0013708369 0.04877613
-0.024903959 -0.008799455 -0.01679434 0.006974134 0.005481061 -0.003104469 -0.013068607 -0.011534589
-0.013714034 0.029246703 0.011469335 -0.005072128 -0.0036074498 0.015203006 0.017218256 -0.00013011415
0.02084026 -0.010676268 0.020065118 -0.020506939 0.03157745 -0.017542874 -0.009686796 -0.014515414
-0.012866346 -0.0103498185 -0.01001316 -0.015919458 0.01889347 -0.016958512 -0.01943773 0.0061999327
0.024256863 -0.0010307669 -0.018067747 -0.017598173 0.009002399 0.026013535 0.032880835 -0.01594637
0.026005967 -0.012780924 -0.014388217 -0.009549812 -0.013317159 0.0040413076 -0.01444349 -0.0150436275
-0.0067667393 -0.011116669 -0.019042667 -0.0025844763 0.05474375 0.007663414 0.016810719 0.025501858
0.011169819 0.0125573035 -0.009666472 -0.008411942 -0.009707682 -0.004857501 -0.013361482 -0.015618334
00000000: 895a f4bc 8623 c33c d471 e8bb b9fb 21bc
00000010: db86 be3c 84d5 f1bb b163 563c 3a71 96bc
00000020: 8120 89bc fe53 aabc 2680 1ebc 7488 e4bc
00000030: 65da 97bc 5ff4 78bc 661c 79bc bed4 beba
00000040: 4457 8abc 316f 81bc 0762 b03c a2d6 00bc
00000050: cdae df3c bf07 43bc 489e 01bd fd37 8f3a
00000060: b36b f8bb 949d eabc a668 20bc d8af 47bc
00000070: da0a 383d 6a1e 22bc 3759 203d 9adb 88ba
00000080: 42b7 06bd 1b52 ffbb 63db ddbc 1430 fd3c
00000090: 4f7c 82bc bbde 55bc 9d83 943c 6f5b 8fbc
000000a0: 20e7 c4bc b87d 41bd 8c87 59bc 846b 3abc
000000b0: 6126 acbc 34c5 473c fa77 dabc f686 3ebc
000000c0: 0c45 7bbc feaf 27bc 0ce6 9fbc 8e4f b3bb
000000d0: a1c2 2f3b ad1b 94bc 1cfc 99bc 7b11 bdbc
000000e0: 9605 9eba df23 39ba 5fb2 7b3c 7e0e 04bc
000000f0: 3adb aabb b3d6 17bc 1942 b13c ed3b de3c
00000100: 6cea 4d3c e886 afbb 934f 81bc 1db0 3e3b
00000110: 17e8 0dbc db29 e0bb d77d 103d 8cf2 013d
00000120: fc7c 733b 872a 6e3b e1b0 b0bc 8b6b 2b3d
00000130: f850 25bb 8ed1 61ba 65f1 40bc 1129 1f3d
00000140: 7db5 d73c 3a95 aa3c 3617 46bd 03ad 04bc
00000150: 45f9 673c 3af8 e2bc 0d65 6bbc 72cd 72bc
00000160: e30e e93b 3175 45bc 98b8 dcbb 4086 6ebc
00000170: 64e4 203d 6691 d53c 286b d4bb 629d 56bc
00000180: 071c 67bc 29d5 f13b e099 b8bb 0103 bb3c
00000190: ba66 803b a55f 24bc c740 07bd 77bd a93c
000001a0: 4240 4abc f200 3ebc 2dd5 dabc 1bbe 393a
000001b0: c92a e13b 2aaf 7d3c 82a2 89bc 0191 14bd
000001c0: 7c76 c33b 134e d43b 47eb 993c cf00 08bc
000001d0: 6d42 31bb 5603 d73b 89ce 00bc aa93 f43b
000001e0: 4255 d63c afd1 ebbb 7d31 19bd d888 1bbc
000001f0: 479e a43c e98e ab3b 885f 11bb 45f7 a23c
00000200: 013a d6bc 5802 4b3c dee9 cd3c 2156 613c
00000210: 0362 71bc 7d77 423c ce9c 253b 38d4 fbba
00000220: 72c0 5cbc a788 85bc 6403 c13c 37ef b739
00000230: a508 dbbc e300 5cbc 9172 f63c bef5 c93c
00000240: 7a2c c33c 96c9 db3c 2fd6 1abc a22b df3c
00000250: 21ac 85bc 6351 cfbc ec73 29bc d981 c83b
00000260: b9fd 4cbc 06cf 853c ff69 66bc 081b 90bc
00000270: 1d7f 2fbc 20ec 3ebc d7f2 ee3c 489d 8fbc
00000280: 7057 e8bc 74e5 74bc 2f35 2ebc 9ea2 07bd
00000290: daed 2bbc fa85 a7bc ec9e 70bc 4c3a 7e3b
000002a0: c3f6 3d3c 42aa e1b9 7e15 5ebc 5cce 8d3c
000002b0: 943f 00bc aeba 9ebc 6e4c 483b 9da4 bb3c
000002c0: a226 e13b e2ba fdbb 1638 72bc a416 e6bb
000002d0: 554c 37bc 6741 4b3c c66f 533c 734f 053c
000002e0: 6021 8a38 c101 59bc 043b 86bc 233e 0dbd
000002f0: 7afe 9cbc d6e5 1abc a7ad b33a 7bc9 473d
00000300: 6303 ccbc 972b 10bc 4994 89bc 4787 e43b
00000310: 799a b33b 5974 4bbb b61d 56bc 93fb 3cbc
00000320: d4b0 60bc c896 ef3c e1e9 3b3c 1834 a6bb
00000330: f76a 6cbb 0716 793c 4d0d 8d3c 406f 08b9
00000340: 31b9 aa3c 83eb 2ebc 9a5f a43c 2bfe a7bc
00000350: 5b57 013d 13b6 8fbc 5eb5 1ebc 0fd2 6dbc
00000360: 5ecd 52bc 4992 29bc 3d0e 24bc 8669 82bc
00000370: 7ac6 9a3c 94ec 8abc e03b 9fbc ce28 cb3b
00000380: 54b6 c63c cc1a 87ba d002 94bc 0b2a 90bc
00000390: cc7e 133c 561a d53c 0eae 063d f6a1 82bc
000003a0: 770a d53c 1567 51bc 8ebc 6bbc d176 1cbc
000003b0: 3730 5abc f26c 843b 63a4 6cbc 8c79 76bc
000003c0: 86bb ddbb b022 36bc 5eff 9bbc 5160 29bb
000003d0: fb3a 603d 601d fb3b a2b6 893c 46e9 d03c
000003e0: 9e01 373c 26bd 4d3c 1f60 1ebc 3ed2 09bc
000003f0: f80c 1fbc ac2b 9fbb 1eea 5abc 0ae4 7fbc
