gain/weight/G_W3.npy (npy, 451712 bytes, 1 tensors)

array f4 [336, 336]
00000000: 98f5 a5bd 1ffc f039 303d 0c3c c0e6 4c3d
00000010: b7e9 9b3c eb39 f73b b14c d3bb 9973 d73c
00000020: 2734 21be 98ac 06bb 0065 7dbd 0dee 873d
00000030: 60b8 b9bc 304f 963d 74d4 66bd 6b34 fe3c
00000040: 4d32 a4bd 89d5 3abd c02b c93c b9bc 253d
00000050: cd96 11bd 4f40 1d3d c5fc cbbd 0df2 e7bc
00000060: 570f 2c3c ea83 ce3d b948 1bbe 89a9 98bd
00000070: fb53 fb3c 94ef 253d a322 9dbd 7b96 1d3d
00000080: e79e 20bd 92d5 a8bc a2ce d13d 4d7a 613d
00000090: 85c0 eebd be29 14bc 3875 b9bc 4c91 543d
000000a0: d1d1 f03b 22b2 67bd 1445 a13c 5b1f 67bd
000000b0: 9e08 82bc 2f9a 883d 2335 92bb 7382 d2bc
000000c0: 32cc d2bd c68d f83c 60d6 503d 5db1 923d
000000d0: 52a2 f9bc 8599 593d 57db 56bd 6a3b c93c
000000e0: 9e72 363c eb33 73bd f190 1f3e 504d 99bc
000000f0: 1bf3 aabd 1284 11bd 4061 aabc dfda aabc
00000100: 710d c5bd a0b0 fabd 2f75 a93c c803 d73c
00000110: e5b2 e43b e51d bcbb 38d7 093d 7d65 85ba
00000120: b73e 9abd 35e9 36bc fb64 413c a60d d7bd
00000130: e036 5fbc 3efd bcbc 6414 0dbb 12b4 1a3d
00000140: 1c96 dc3c 36f3 50bd 8e18 97bb b9f2 823d
00000150: 3354 153d cb1d cfbd 10b5 cebd 1df4 a73c
00000160: 3cd8 aa3d 0710 e53c b429 5cbd b23f 333d
00000170: 97b4 57bd 8f7f bdbc cd59 4ebc 253c 4e3d
00000180: aab0 8f3d 3d9d 90bd d613 1b3d e4df 1a3d
00000190: 3624 543d 7495 fd3b fc16 2d3d 93ea 9f3c
000001a0: cc78 b83d f5f5 29bc 7724 60bd 3665 323c
000001b0: 26b6 0b3c 8de6 a2bd 7042 043d 6980 893d
000001c0: e055 ec3c f602 92bc 034b cabc 18e6 083d
000001d0: a33c 3d3d f977 a9bd 6231 86bd e694 d2bd
000001e0: 9c53 a6bd 0294 95bc bc9a 30bc 9d0c 2bbd
000001f0: 4bfb fcbc 6ade af3c 22db dcbd 3747 673d
00000200: 4afa 1fbd 0a2a 9dbd 1eda 7ebc e9b0 c83c
00000210: 4959 a1bc 885a 2bbe b6be 09be f1cf aabd
00000220: 878a 3e3d 0541 dfba e7d4 943c 2ff7 2f3d
00000230: 3d26 72bd 2a3f 493b 04d3 353d 5105 a2bc
00000240: e2a5 d43d c0a5 47bc 334e 10bd abdb 553e
00000250: fde9 cabc 0d93 893c 9ede 1d3c 3b82 ecbd
00000260: fced b8bc 267d 983d 6e38 2e3b 1d72 4a3d
00000270: 32be c03d cf95 29bd ba67 793c 4f9e 91bd
00000280: 91e4 07bd 0b04 453d ba42 3fbd a51b 053e
00000290: 5bb9 3e3d 4aab cfbd b0ff a4bc 3c55 6abc
000002a0: 7d38 4fbd fd4c f4bd eb03 09be c678 62bc
000002b0: b679 dabc 3d95 363c 015e ff3b a589 4ebd
000002c0: adff 82bd 8a5e 943d a6a7 a5bc 3394 3ebd
000002d0: 77e1 813d 3020 4dbd 03d4 963d 2df7 263d
000002e0: 4046 0abd a57c 9dbd 4e29 423d c934 bbbd
000002f0: 2cc5 af3d d2a5 74bd c085 c13d 598f f33d
00000300: dcb6 ea3c d3c6 3d3d 00ed a83c 9081 e53c
00000310: ba92 813d a6ba 563d 3929 823d b66a 8cbd
00000320: b243 1c3d 5de3 edbb 8167 41bd 5bfd 5bbd
00000330: 826d fdbc 3a12 f7bc 8b97 dd3c 87d9 e8bb
00000340: 31e3 d7bb aa94 7dbd f1d0 0fbd c9a0 93bc
00000350: 645c c73c 0741 ab3c 2bea 45bd 9204 99bc
00000360: 1b9b 903d ff72 e43d 0714 01be ebc9 df3d
00000370: 4665 7b3c 416b 273b 95b2 5ebc b103 55bc
00000380: 0718 24bd 9b60 e0bd 54b1 5c3d 99d7 183d
00000390: ab19 bb3d 5b59 2c3d 9b25 d73c 3273 d3bd
000003a0: 4980 a0bd 8cd4 1abc 492a 3c3b f3cc 85bc
000003b0: b4bb 1bbb 5495 a3bb 0306 e53d 6568 a23d
000003c0: d4d5 9bbd 048d 00be 1628 183e a017 0cbd
000003d0: 44f0 1d3d ead8 15be f36f 3b3c 827a 993d
000003e0: 86ee 56bd 21ec d5bd c848 953b 8f8e 6abd
000003f0: 0a4d 1ebd 7ff9 d1bc ac56 4f3d 0d99 8d3c
-0.08103484 0.00045964212 0.00855951 0.050024748 0.019032342 0.007544746 -0.0064483513 0.026300238
-0.15742551 -0.0020549651 -0.0618639 0.066372015 -0.022670925 0.073393226 -0.056354955 0.031030854
-0.080174066 -0.0456138 0.024556994 0.040463183 -0.035544205 0.038391408 -0.09960321 -0.028313661
0.010501704 0.10083754 -0.1516446 -0.07454211 0.030679693 0.040511683 -0.07672622 0.038473587
-0.03921404 -0.02060965 0.1024449 0.055048276 -0.11657814 -0.009043155 -0.022638902 0.05189638
0.007349231 -0.056566365 0.01968626 -0.056426387 -0.01587325 0.06670033 -0.004461901 -0.025696969
-0.102928534 0.03034104 0.050985694 0.071627356 -0.030472908 0.053124923 -0.052455273 0.024564464
0.011135725 -0.059375685 0.15582635 -0.018713623 -0.0834715 -0.035526343 -0.020798326 -0.020856319
-0.09621704 -0.1224072 0.02068576 0.02624692 0.0069793337 -0.0057408684 0.033652514 -0.0010177341
-0.07531493 -0.011163999 0.011803861 -0.1050065 -0.013623923 -0.023069974 -0.0021527046 0.037769385
0.026927046 -0.051013194 -0.0046110814 0.06393952 0.03645725 -0.101131044 -0.10093129 0.020502144
0.08342025 0.027961744 -0.05375071 0.043761916 -0.05266246 -0.023132114 -0.012594652 0.050350327
0.07016118 -0.07061241 0.037860714 0.037811175 0.051792346 0.0077387635 0.042258248 0.019521033
0.09007415 -0.010373582 -0.054722276 0.010888388 0.008527314 -0.0795413 0.032289922 0.067139454
0.028849542 -0.017823678 -0.024693971 0.03342256 0.046200406 -0.08274836 -0.06552388 -0.102823064
-0.08121416 -0.018259052 -0.010779079 -0.041760076 -0.030881545 0.02146836 -0.10783984 0.0564644
-0.039057054 -0.07674034 -0.015554933 0.02449842 -0.019695895 -0.16733754 -0.13451657 -0.08340443
0.04651883 -0.0017032927 0.018167926 0.042960342 -0.059118498 0.0030707815 0.044390693 -0.019777926
0.10383202 -0.012185514 -0.035230827 0.20884578 -0.024769777 0.016793752 0.009635596 -0.11548277
-0.022574417 0.07445745 0.0026583928 0.049425233 0.09411277 -0.041402634 0.015222484 -0.07110273
-0.033176962 0.04809956 -0.046694495 0.12998827 0.046563487 -0.10140093 -0.020141453 -0.014302548
-0.05059098 -0.11928747 -0.13380401 -0.01382274 -0.026669364 0.01114398 0.0077931886 -0.050424237
-0.063964225 0.072445944 -0.020221543 -0.046528053 0.06341832 -0.050079525 0.07364657 0.04076307
-0.033758402 -0.0768979 0.047402672 -0.09140927 0.085825294 -0.05972845 0.09449339 0.11892576
0.028651647 0.04633219 0.020620823 0.028015882 0.06326814 0.052424096 0.06355519 -0.06856291
0.038150497 -0.00725977 -0.04721785 -0.053708415 -0.030936006 -0.030160058 0.0270498 -0.0071060094
-0.0065883626 -0.061909355 -0.03511137 -0.018021004 0.024336047 0.02090503 -0.048319023 -0.018678937
0.07060834 0.11154746 -0.12605296 0.10927185 0.01534397 0.0025546106 -0.013592382 -0.013001368
-0.040061977 -0.10955926 0.05388005 0.037314985 0.09135755 0.042077404 0.026263049 -0.10324706
-0.078369685 -0.009450089 0.0028711727 -0.016333079 -0.0023763003 -0.0049921665 0.11182787 0.07930068
-0.07609144 -0.12553793 0.14859042 -0.034202218 0.038559213 -0.14633527 0.011440265 0.0749407
-0.052473567 -0.10445429 0.0045557953 -0.05726486 -0.03864769 -0.025631664 0.050619766 0.017284894
