gain/classfy_weight/6552429313030480690/G_b3.npy (npy, 2720 bytes, 1 tensors)

array f4 [648]
-0.019389428 -0.06746264 0.010728024 -0.016138645 -0.0119049195 -0.036568068 0.032760303 -0.026032098
-0.027309356 -0.020284606 -0.049434457 0.0011099686 -0.01906728 0.030148081 -0.016385011 0.0062212655
-0.04370398 -0.029269658 -0.016021809 -0.030248303 -0.0049024667 -0.008238933 0.037254192 -0.013575992
-0.021152183 -0.044438127 0.003667079 -0.023603821 -0.023433369 -0.004508657 -0.031523567 0.039350398
0.014592435 -0.014762298 0.007994093 0.034646988 -0.008653994 0.0140239755 -0.025534496 -0.032253593
0.021044238 0.0056181746 0.03298036 0.0021346363 -0.03489619 -0.038699713 -0.004983099 0.012661518
0.0031240871 0.06062623 -0.0047940235 0.017098345 -0.03204296 -0.021493167 -0.018299147 -0.034590688
-0.018903749 -0.031907383 0.038871206 0.0045664203 0.017472073 0.010405422 0.00470726 0.013023582
-0.041670363 -0.003970829 -0.03690971 0.03960416 0.013128945 0.00091594807 0.015154396 0.017733086
-0.017911222 -0.04087758 -0.026266389 0.00038940727 0.04847716 -0.034836695 -0.0031845935 -0.005338852
-0.013469914 -0.0047063567 -0.0058614775 -0.026650012 -0.0072294795 0.05786723 0.0033160911 -0.019128595
-0.047206536 -0.02763163 0.0060245157 -0.04100545 -0.027527181 -0.006940856 0.0612395 0.0076909866
-0.034659304 -0.038371954 -0.01481746 -0.02124167 -0.035009153 -0.037717767 -0.022633206 0.048542265
0.004182477 -0.024140878 -0.0154426135 -0.00334415 0.018157119 -0.018268818 -0.03718788 0.00953681
0.036678478 0.022170475 0.0130967805 -0.03093252 0.040529326 0.005561477 -0.018621618 -0.05502454
-0.00025737856 0.066071264 0.0015325452 -0.022352863 -0.017333966 -0.0030662941 0.0045145606 -0.0033960736
-0.037939105 -0.010150585 0.056714196 -0.029729119 -0.009944976 -0.011943662 -0.017424427 -0.008304294
0.0023212421 -0.037979122 -0.023353882 0.022588212 0.0008386272 -0.00012235972 0.0010038166 -0.024894826
-0.003206548 -0.06150661 -0.032634415 -0.020393705 0.023189172 0.030958254 0.0039395457 -0.021681627
0.007885782 -0.01707511 -0.028040873 0.0061058765 -0.0039512836 0.01620028 0.001638057 -0.0052279634
0.017318083 -0.022963552 0.0022907853 -0.05351006 -0.02255482 -0.020890437 0.010848081 -0.013593756
0.02389922 0.0044897147 -0.006086344 -0.004083323 -0.041047852 -0.020990677 -0.0116379205 -0.0053230757
0.026405156 -0.012931207 0.009437407 -0.0028832087 0.003087622 -0.046464287 -0.012813453 -0.025666356
0.024814267 0.014825267 -0.018064145 0.016880613 0.047370076 -0.0026836575 -0.019166056 -0.017876778
0.010233123 -0.0027675987 0.025224634 -0.0049764593 -0.008522832 0.00073967467 0.010406519 -0.036397904
-0.018710395 -0.01569677 0.0074355695 -0.019388301 0.027810402 0.03420082 -0.05676699 -0.023209946
-0.064320415 -0.0050548306 -0.02312214 0.010119157 0.008598537 0.004496329 0.06646683 0.015951153
-0.018188545 -0.06443246 -0.017951183 -0.013009942 0.043971024 0.0029809163 -0.011107544 0.023615224
0.00034829768 -0.028288357 0.010750226 -0.012554646 0.015274916 0.052353967 0.012901387 0.0037567262
0.04637393 -0.013483945 0.0014064101 -0.018634893 -0.026589027 0.012320283 0.042555608 0.018374309
0.005767349 0.043437604 0.0318966 -0.0029935318 -0.002202943 -0.017466744 0.028847916 0.021004254
0.008340506 0.013057713 0.027191611 0.029797474 -0.0077942796 0.007661849 -0.020801151 0.0006404302
00000000: 94d6 9ebc da29 8abd 98c4 2f3c 3135 84bc
00000010: da0c 43bc 66c8 15bd ab2f 063d 4441 d5bc
00000020: dfb7 dfbc e72b a6bc c97b 4abd 5e7c 913a
00000030: fc32 9cbc 1cf9 f63c dc39 86bc c2db cb3b
00000040: f202 33bd ecc6 efbc 2b40 83bc 4acb f7bc
00000050: dfa4 a0bb 97fc 06bc da97 183d d66d 5ebc
00000060: 5847 adbc c104 36bd 6053 703b cd5c c1bc
00000070: 56f7 bfbc 5bbd 93bb db1e 01bd e22d 213d
00000080: 1c15 6f3c 91dd 71bc a8f9 023c 00ea 0d3d
00000090: 7bc9 0dbc d1c4 653c b82d d1bc 581c 04bd
000000a0: f764 ac3c aa18 b83b 6a16 073d 41e5 0b3b
000000b0: 4fef 0ebd 9783 1ebd 4449 a3bb 4172 4f3c
000000c0: 7cbd 4c3b 3653 783d 2f17 9dbb d411 8c3c
000000d0: 7b3f 03bd 7012 b0bc 18e8 95bc f7ae 0dbd
000000e0: 09dc 9abc 51b1 02bd 6a37 1f3d e9a1 953b
000000f0: 9821 8f3c 817b 2a3c 5c3f 9a3b dd60 553c
00000100: 8bae 2abd ba1d 82bb a32e 17bd f937 223d
00000110: c91a 573c 3c1c 703a 254a 783c fa44 913c
00000120: 8eba 92bc 406f 27bd 9c2c d7bc 5c29 cc39
00000130: fd8f 463d ecb0 0ebd 9db4 50bb 89f1 aebb
00000140: eab0 5cbc c837 9abb a311 c0bb 2051 dabc
00000150: 45e5 ecbb 3006 6d3d c752 593b 92b3 9cbc
00000160: a45b 41bd ba5b e2bc 4d69 c53b 55f5 27bd
00000170: af80 e1bc 1f70 e3bb 45d6 7a3d ac04 fc3b
00000180: eaf6 0dbd e92b 1dbd efc4 72bc 0303 aebc
00000190: c265 0fbd f27d 1abd 4669 b9bc 41d4 463d
000001a0: 290d 893b 17c3 c5bc 0403 7dbc 8729 5bbb
000001b0: 3dbe 943c 7da8 95bc 5252 18bd 4840 1c3c
000001c0: 2c3c 163d db9e b53c e193 563c 3266 fdbc
000001d0: 1402 263d 0d3d b63b 5d8c 98bc 6961 61bd
000001e0: c4f0 86b9 5f50 873d afdf c83a 5a1d b7bc
000001f0: f6ff 8dbc e1f3 48bb e1ee 933b a990 5ebb
00000200: 0966 1bbd a44e 26bc 254d 683d 7b8a f3bc
00000210: 41f0 22bc 59af 43bc acbd 8ebc bc0e 08bc
00000220: fb1f 183b ff8f 1bbd a450 bfbc ea0a b93c
00000230: 52d7 5b3a b04d 00b9 7f92 833a 3cf0 cbbc
00000240: f324 52bb 5bee 7bbd aaab 05bd b310 a7bc
00000250: 38f7 bd3c 2a9c fd3c 4e17 813b ab9d b1bc
00000260: 5e33 013c 1ae1 8bbc f9b5 e5bc ce13 c83b
00000270: c579 81bb 73b6 843c 12b4 d63a 564f abbb
00000280: a7de 8d3c 0f1e bcbc 0021 163b 5d2d 5bbd
00000290: e3c4 b8bc 6c22 abbc 26bc 313c 58b8 5ebc
000002a0: 4cc8 c33c 751e 933b f46f c7bb 65cd 85bb
000002b0: cb21 28bd a4f4 abbc faac 3ebc 326d aebb
000002c0: a04f d83c 6add 53bc 5b9f 1a3c 37f4 3cbb
000002d0: b459 4a3b 5651 3ebd 84ef 51bc 4042 d2bc
000002e0: 4a47 cb3c ade5 723c 42fb 93bc 3649 8a3c
000002f0: 2007 423d 4de0 2fbb 2202 9dbc 5272 92bc
00000300: d4a8 273c 9a60 35bb e4a3 ce3c 9111 a3bb
00000310: 59a3 0bbc bae6 413a 1b80 2a3c f815 15bd
00000320: 8b46 99bc 8396 80bc 14a6 f33b 37d4 9ebc
00000330: a4d2 e33c 2916 0c3d 8184 68bd c922 bebc
00000340: 6cba 83bd fea2 a5bb a46a bdbc d2ca 253c
00000350: e1e0 0c3c f155 933b c31f 883d feab 823c
00000360: 2500 95bc 2af5 83bd 5c0e 93bc a727 55bc
00000370: f61a 343d 7a5b 433b 6bfc 35bc b774 c13c
00000380: b99b b639 fcbc e7bc b721 303c 00b2 4dbc
00000390: a443 7a3c 1d71 563d 5760 533c 6833 763b
000003a0: 97f2 3d3d c4eb 5cbc 4b57 b83a 34a8 98bc
000003b0: 3bd1 d9bc 03db 493c ca4e 2e3d b885 963c
000003c0: 08fc bc3b a1eb 313d 02a6 023d 212f 44bb
000003d0: 405f 10bb 6b16 8fbc 7752 ec3c 1d11 ac3c
000003e0: 9ea6 083c 05f0 553c f1c0 de3c d519 f43c
000003f0: 2867 ffbb 3f10 fb3b 2d67 aabc 8be2 273a
