gain/classfy_weight/3054652060032968249/D_b1.npy (npy, 2720 bytes, 1 tensors)

array f4 [648]
000000 7c e0 2e bd 8e 73 bf bb f9 ba 1f bd 68 24 39 bc
       -0.042694554 -0.0058426326 -0.03899667 -0.011300184
000010 f5 b0 78 b9 35 c9 ea bb 3d 61 14 bd c1 79 15 bc
       -0.00023717045 -0.007165099 -0.036225546 -0.009123267
000020 9d f3 2e bd 39 f8 50 bd ad a1 fd bb fd d6 11 bc
       -0.042712796 -0.051017974 -0.0077402205 -0.008901355
000030 33 6a 4f bc da 9d ce bc d8 66 13 bd b0 b7 a7 ba
       -0.012659597 -0.025221754 -0.03598675 -0.0012795832
000040 a0 20 90 bb 26 7d fa bc 4e 2d 19 bd 32 6c 10 bd
       -0.0043984205 -0.030577254 -0.03739672 -0.035259433
000050 b8 13 c4 3c 8b 84 20 3c d8 d6 26 bd a5 1c 26 bd
       0.023935184 0.009797226 -0.040732235 -0.04055466
000060 cd 19 24 bd 66 7d d1 bc 82 59 73 bd cb 58 5b bc
       -0.040063668 -0.02557249 -0.059411533 -0.013387869
000070 c3 63 13 bd dc 86 91 bb c6 a3 6a 3c 5d b6 aa bc
       -0.035983812 -0.0044411253 0.014321273 -0.02083891
000080 1e b6 ea bb 3a f0 d1 3c ec 32 ac 3b 4a e9 4d bd
       -0.0071628233 0.025627244 0.005255094 -0.05027131
000090 c2 15 37 bd e1 e3 a8 3b ba 0a 4c bc 74 b5 00 bd
       -0.044698484 0.0051541184 -0.012453729 -0.031423047
0000a0 00 99 eb ba c9 7d 50 bc bb ee 06 bc 90 36 25 bc
       -0.0017974675 -0.012725302 -0.008235629 -0.0100838095
0000b0 99 48 ee bb cf cc 73 3b 31 0c 9e 3b 4f d3 03 bc
       -0.007271838 0.0037200933 0.0048232307 -0.008045985
0000c0 06 03 49 bd 3e 01 32 ba 39 be 9d bc 2c d2 04 bb
       -0.04907515 -0.0006790346 -0.019255744 -0.0020266874
0000d0 67 40 26 bd af 10 cf bc d6 b5 21 bd 2d 0d e2 bb
       -0.040588763 -0.02527651 -0.039480053 -0.0068985433
0000e0 97 f2 81 3c 33 f0 be bc 1c 05 c5 bc ba 75 40 bb
       0.015862746 -0.023307895 -0.024050288 -0.0029367045
0000f0 ae e6 bf bc 5f d0 e2 bc 70 18 3a bc 9b ae 22 bd
       -0.023425426 -0.02768725 -0.011358365 -0.039717298
000100 cf ba 34 bc 9d e1 27 bc b1 08 91 bc 13 82 db 3c
       -0.011030867 -0.0102466615 -0.01770434 0.026795423
000110 b8 03 45 bc d8 96 d7 bc 68 01 11 bd 6d 9e 65 bd
       -0.012024812 -0.026317045 -0.03540173 -0.05605929
000120 94 22 ab 3b 67 e6 0b bd 5d 39 02 bd da 53 fc 3b
       0.005222628 -0.034155276 -0.031792987 0.0077004256
000130 72 2e b2 bc 10 46 c7 bc d8 e0 09 bc 14 a2 a1 bc
       -0.021750662 -0.0243254 -0.008415423 -0.019730605
000140 8e 7f 0c bc c7 7d e3 bc df 5c 11 bd d1 9c 3d bc
       -0.008575333 -0.027769936 -0.03548896 -0.0115730325
000150 2b ac dd bb 8b d9 50 bd d0 c2 28 bd a9 34 06 bd
       -0.006764909 -0.050988715 -0.041201413 -0.032765064
000160 ad 05 39 bb d0 85 53 3b 53 7c ae 3c a9 53 f8 bc
       -0.0028232143 0.0032275803 0.021299517 -0.03031333
000170 74 63 f4 bb ef c6 a2 bb b2 f4 1b bd 63 2c 86 bc
       -0.007458145 -0.0049675624 -0.038075157 -0.016378587
000180 a8 77 b7 bb b7 04 49 bd 37 d4 2a bc 0e 4c 94 3a
       -0.005598981 -0.049076762 -0.0104265725 0.001131417
000190 42 53 02 3a ab 48 0d bc 0e 20 24 bd 39 23 76 bc
       0.0004971513 -0.008623282 -0.040069632 -0.015023046
0001a0 4e b4 e2 bb ea 55 92 bc bc 0a 6d bd 22 7d 0a bc
       -0.0069184666 -0.017863233 -0.057871565 -0.008452686
0001b0 aa aa 25 bd c9 e5 00 bd 22 d2 95 3a ed bd f6 bb
       -0.04044596 -0.03146914 0.0011430422 -0.007529965
0001c0 07 9e 30 bd 0c cc cb 3b 6f ca 1f bd 72 62 9b 3c
       -0.043119457 0.0062193926 -0.039011415 0.01896784
0001d0 88 4d 0a bd e0 a7 e6 bc f4 ad f5 bc cc 40 4c bd
       -0.033765346 -0.02815622 -0.029990174 -0.049866483
0001e0 24 ec 41 bc f5 f2 75 bc f7 69 3a bc 61 14 46 bc
       -0.0118360855 -0.015011539 -0.011377803 -0.01208982
0001f0 4b c8 84 3c 83 82 11 bd 2d 35 2e bd 0f 7c 7f 3b
       0.016208788 -0.035524856 -0.04253118 0.0038983857
000200 8b 39 69 bd d5 00 f3 bc 09 80 15 bc ae 45 9b bc
       -0.056939643 -0.029663483 -0.009124764 -0.018954124
000210 2e 92 b1 3b f7 0c 50 bc fd 0e ac 3c 54 ce 07 bc
       0.0054190373 -0.012698404 0.02100324 -0.008288939
000220 9e aa f0 bc d8 13 57 bc 23 09 0b bd e7 bb dc bb
       -0.029378232 -0.01312729 -0.03394426 -0.006736267
000230 25 52 15 bb 8c 6e 7a 3c 40 64 ec bc 7a 81 df bb
       -0.0022784558 0.0152851455 -0.028856397 -0.0068208547
000240 9c a5 39 bc 4d 23 07 bd 73 17 77 bd 90 6b b6 bc
       -0.011330988 -0.03299265 -0.060325097 -0.022268087
000250 2f 1d 84 bc dd 0a 18 bd 64 99 68 bc c4 77 0d bd
       -0.016127197 -0.037119735 -0.014196727 -0.034538046
000260 5e 14 98 bc d4 26 1f bd 15 48 3b bd 98 45 b8 bc
       -0.0185644 -0.03885539 -0.04572304 -0.022494122
000270 11 d5 24 3c e2 e6 e9 bb 80 8a 0e bd 06 73 d1 bc
       0.010060565 -0.007138119 -0.034800053 -0.025567543
000280 88 89 9e bb b4 61 2a 3c 98 d1 21 bd a4 e6 47 bd
       -0.0048381723 0.010399271 -0.039506525 -0.04880394
000290 6b 89 b0 bc 1a 8d ed bb 68 4e d6 bb b6 a8 9c 3c
       -0.021549901 -0.0072494866 -0.0065401085 0.019123416
0002a0 7e 79 c0 3c 45 71 d7 bb ec 8a e6 bb 45 0a c4 bc
       0.023495432 -0.006574782 -0.0070356037 -0.023930678
0002b0 81 ac 1a bc 88 07 61 3b b9 51 2c bc f7 9d 58 3b
       -0.009440542 0.0034336764 -0.010517531 0.0033053139
0002c0 65 2d 35 bd 49 17 e1 bc a8 e1 48 bc 36 61 16 bc
       -0.044232745 -0.027476924 -0.012260832 -0.00917845
0002d0 7c b3 a1 3b e4 46 f4 3a 7d f9 12 3c 0a 1e 06 bd
       0.0049347263 0.001863685 0.008970615 -0.03274349
0002e0 d0 c5 3a bd 32 1f 82 bc 6e d8 04 bd 92 9c fc 3b
       -0.045598805 -0.015884016 -0.032432966 0.0077090943
0002f0 8c c0 24 bd 53 72 cf 3b c2 65 37 bd e3 7f 2c bc
       -0.04022269 0.006330767 -0.04477478 -0.010528537
000300 d7 ca 20 bc c3 97 83 bc f1 72 d2 bb c3 99 0c bc
       -0.009813986 -0.016063577 -0.0064223935 -0.0085815815
000310 53 af 33 bd 1c 00 04 bd d5 ea 03 bd f8 33 36 3b
       -0.043868374 -0.032226667 -0.032206375 0.0027801972
000320 45 48 23 bd ac 77 2e bc 3a 9d 01 bc 63 c5 e5 bb
       -0.039863843 -0.010648649 -0.007911021 -0.0070120557
000330 2f cb 13 bc 47 dc 3f bc 8f ec 8e bb 7e b7 1c bd
       -0.009020611 -0.011710233 -0.004361696 -0.03826093
000340 3a c7 f2 bc 89 70 fa bc d1 a6 f3 bb 48 86 00 bc
       -0.029636014 -0.03057124 -0.0074356575 -0.007844515
000350 ba 1f a2 bb 1b d5 e0 3b 2b 0f f7 bc 7b 2e fe bc
       -0.0049476298 0.0068613417 -0.0301586 -0.031028023
000360 17 ae 7a bc e7 27 0b bd 81 76 c4 bc f1 98 91 3c
       -0.015300295 -0.0339736 -0.023982288 0.017773123
000370 57 21 b2 3b 5c 27 d5 bc 43 02 0a bd d4 4b cd bc
       0.0054361033 -0.026019745 -0.033693563 -0.025060572
000380 fd e5 9f bc 9e d0 82 3c 56 98 17 bc 89 c3 5f 3b
       -0.019518847 0.015968617 -0.009252628 0.0034143648
000390 cb 25 b2 3c ee 44 31 bd ed c1 8d bd fa b4 2f bc
       0.021746537 -0.043278627 -0.06921754 -0.0107243005
0003a0 70 93 11 bc 13 b1 a1 bc 6c 92 1c bd 77 ed 10 bd
       -0.0088852495 -0.019737756 -0.038225576 -0.035382714
0003b0 c4 82 28 bd 0a f6 1b bd 2b fb 0a bc 04 ee 7b bc
       -0.041140333 -0.038076438 -0.008482735 -0.015376572
0003c0 99 e3 2d bd 78 36 f8 bc cf 5e f2 bc 8a 77 ee bb
       -0.042453382 -0.03029941 -0.029586224 -0.0072774338
0003d0 be e2 e6 bb 1e 48 87 bc 1d 96 02 3c ff 9c 04 bc
       -0.0070460727 -0.01651388 0.00797036 -0.008094071
0003e0 55 ad 2f 3c 96 9a b6 3b 3a af cb bb 8e 81 1f bd
       0.010722478 0.0055726273 -0.006215957 -0.038941912
0003f0 4c 47 8b 3b 40 2a f6 39 fb 0a 03 bc 21 69 7e 3b
       0.0042504426 0.00046952255 -0.007998223 0.0038819986
