gain/classfy_weight/3054652060032968249/D_b2.npy (npy, 2720 bytes, 1 tensors)

array f4 [648]
00000000: d086 193c 73e6 cebc a0e3 ebbc e91e 89bc
00000010: 1e23 923c 68b8 7c3c 143d 06bd 0717 343b
00000020: 0368 3fbd 2160 39bc 811b 2cbb 0f13 53bd
00000030: 3515 6abc 5872 d9bc b8d6 0cbd 40ab 29bc
00000040: 1c12 56bc 8e82 e23c a485 8c3b 169f 91bd
00000050: 4410 c0bc 68d0 69bc 2ec2 3abb 715b 803b
00000060: 2c94 6abd 3a67 15ba 5cd7 acbc 29f1 0fbc
00000070: 10ac f9bc 9b97 2fbd 70a6 a0bd f94f 65bb
00000080: 5e07 63bd 424b 0fbb 41d1 193b fd94 29bb
00000090: 0f9e 08bc fec6 b63b fd39 c3bc 76e9 47bc
000000a0: 550b 513d 4124 88bd de67 713c e14b 5f3c
000000b0: d2b0 35bc 3fa7 7a3c f098 a2bb fa4f aabc
000000c0: aff0 27bd 4139 333d d53f 45bd feda 12bd
000000d0: eb6b 07bd 864f 63bc 49d1 41bd 029a 6e3c
000000e0: 010f 853c 1ca1 88bd 8f85 a03c ac50 19bd
000000f0: 3069 133c 2eeb 55bc 893b 94bc ee86 eb3c
00000100: 71e2 49bd e414 083c daa0 2e3c 121b 9dbc
00000110: e334 89bb 2357 39bd af10 f0bc 1941 80bd
00000120: d7bd 803b c856 9ebc ab0f 8b3c 06be 7bbc
00000130: cba3 43bd 9a8c 11bd 356a 19bd ca39 163d
00000140: dc94 4a3c 2541 eabc 5de8 9dbd 8d71 a6bc
00000150: 727e bbbc fa17 453a 2606 103b 163f 643d
00000160: 9f76 713a cab0 8cbc d18d e23c 625a 8d3b
00000170: 0bc6 1abc e103 c63c 2151 3fbc 8cc5 163c
00000180: 8dbe 42bc 7b31 e03c ac60 5ebb 9bd8 a0bb
00000190: 60fb 803d 9f13 c93b 7555 053d a835 a6bc
000001a0: 013a cebc 9bf3 94bd f2d7 41bd fa10 96bc
000001b0: 339b 743c d53f b8bc 7c51 913d 6959 57bc
000001c0: 1150 3d3c 5deb b33c b604 c33c 9350 1f3c
000001d0: f34f f0ba 17d1 cab9 f0fe 33bb 903b 2abd
000001e0: 8c10 14bd e4f1 8e3a b85f 2b3c a574 003d
000001f0: ce72 2e3c f1f7 18bd d090 a53c ef7c 47bd
00000200: 7d2e 143d f5f0 22bc d3e7 80bb cd7f 19bd
00000210: cfe3 9bbc c66b 5cbc 1a78 d8bc 247e ddbc
00000220: 4a03 20bd b337 bcbc bc04 c8bb 8b39 acbc
00000230: cdeb 30bd ac70 f53c 8771 5cbc 8946 04bc
00000240: 66cb 40bd aa23 a43c 9f70 513b 45b9 293c
00000250: 8ca3 163c bf4f c1bc ef00 d4bc 4350 36bd
00000260: 8e4a 2b3c c3b7 40bd cefe 97bc f376 143c
00000270: 4c90 89bd 7628 013d 96aa afbc 97cd 0fbc
00000280: 1dfd a7bc 1525 f33c f98d 81bd 6ad5 193d
00000290: 2d99 0bbc 22fd f0bb ed63 21bd 6cd4 14bd
000002a0: 328e 86bc 265f 7ebc 749b c2bb 444b ac3c
000002b0: 9688 0dbc 0ebd d9bc 9166 19bc 720e f8bb
000002c0: 6b58 ba3b f98e b5bb 4b79 45bd 3e90 b8bc
000002d0: 301b eabc 2768 293b 1f68 07bc f4bb 8eb9
000002e0: 906d 95bb 18e5 47bd c903 9cbb e8ee 14bd
000002f0: 6809 13bd 34bb 143d 579a c4bc a8fc 2b3c
00000300: 2442 2fbc 0c74 b6bc caa7 0b3d 951c 45bd
00000310: 4142 9b3c e1a2 e5bc 9511 8cbc 155f 80bb
00000320: 7c52 16bc c789 7b3c 6ce3 713b 2280 013c
00000330: a983 2ebb 3fdf c6bc 3551 053d 8b89 6fbc
00000340: 1851 433c ff59 2dbd e29c d7bb 35ae 64bb
00000350: 51c2 0c3b 5f71 e93b 3c4d 203d d03b 06bd
00000360: 17a3 afbc 4a64 17bd 1324 2a3b 3cc7 47bd
00000370: c4ba abbc f27d 8dbb ec0d 5e3d 1de8 78bd
00000380: b95a 6ebc 3516 233c 3fa5 5cbd 09c9 91bd
00000390: bad3 fb3c f55a 7f3b a660 24bd d745 1dbd
000003a0: f3da 9cbc 4f6d 04bd 56e5 b6bc 2189 13bc
000003b0: d630 edbb 4209 0ebc 664c 673c d7e0 873c
000003c0: 2860 913c b7ad 43bc 3d7d 79bb cf03 b1bc
000003d0: 4fcc e9bc 217f 89bc 5cba 953c 2197 853c
000003e0: def4 7b3c 92da 043d 4219 e13c d48c 05bc
000003f0: 00fb 10bd 155a 313c bfc8 19bd 2abf 91bc
0.009370521 -0.025256371 -0.028795063 -0.016738372 0.01783901 0.015424825 -0.032773092 0.0027479546
-0.046730053 -0.011314423 -0.002626151 -0.051531848 -0.014287283 -0.026543781 -0.03438446 -0.010355771
-0.013065841 0.027650144 0.004288392 -0.07110421 -0.023445256 -0.014270879 -0.0028497088 0.0039171507
-0.057270214 -0.0005699281 -0.021098785 -0.008785524 -0.030477554 -0.04286919 -0.078442454 -0.0034990294
-0.055426948 -0.0021864926 0.0023470672 -0.0025876157 -0.008338465 0.005577921 -0.023831362 -0.0122016575
0.051036198 -0.0664754 0.0147342365 0.013628931 -0.0110895205 0.015298664 -0.004962079 -0.020790089
-0.041001018 0.043755773 -0.048156578 -0.03585338 -0.033061903 -0.01387394 -0.04731873 0.0145630855
0.016242506 -0.06671354 0.019594936 -0.03743045 0.008997247 -0.0130565595 -0.018094795 0.028750863
-0.049288217 0.008305762 0.010658467 -0.019177947 -0.004187213 -0.045249116 -0.02930483 -0.062624164
0.0039288807 -0.01932849 0.016975245 -0.015365129 -0.047763627 -0.03553448 -0.037454803 0.036676206
0.012364592 -0.028595516 -0.077103354 -0.020317817 -0.022887442 0.00075185264 0.002197632 0.055724226
0.00092110963 -0.017174143 0.027655514 0.004313753 -0.009446631 0.024171771 -0.0116770575 0.009202372
-0.011886251 0.027367344 -0.0033932133 -0.004908634 0.06297946 0.006136372 0.0325522 -0.020289257
-0.025174143 -0.072730266 -0.047325082 -0.018318642 0.0149295805 -0.022491375 0.0709562 -0.013143876
0.011554734 0.021962816 0.023805957 0.0097238 -0.0018334374 -0.00038684226 -0.0027465187 -0.04156071
-0.036148593 0.0010905829 0.010459833 0.03136124 0.010647489 -0.03734583 0.020210654 -0.04870313
0.036177147 -0.009945144 -0.0039338856 -0.037475396 -0.019029526 -0.01345343 -0.026424456 -0.027037688
-0.039065637 -0.022975778 -0.00610408 -0.021023532 -0.043193627 0.029960953 -0.013454801 -0.0080734575
-0.047068976 0.020036537 0.0031957997 0.010359113 0.009194266 -0.023597596 -0.025879351 -0.044510137
0.010454787 -0.04705025 -0.018554118 0.009061563 -0.067169756 0.031532727 -0.021443646 -0.008777044
-0.020506436 0.029680768 -0.06325907 0.037557043 -0.008520407 -0.0073543945 -0.039401937 -0.036335394
-0.016425226 -0.015525615 -0.0059389416 0.021031983 -0.008638522 -0.026579406 -0.009362833 -0.0075700814
0.00568681 -0.0055407253 -0.048211377 -0.022529718 -0.028577417 0.0025849433 -0.0082645705 -0.00027224387
-0.00456018 -0.048802465 -0.0047611934 -0.03636065 -0.035897642 0.036311343 -0.023999376 0.01049725
-0.0106969215 -0.022272132 0.034095563 -0.04812296 0.01895249 -0.028031768 -0.017098228 -0.0039175847
-0.009174939 0.015352673 0.0036909236 0.007904084 -0.0026628769 -0.024276374 0.03254815 -0.014620195
0.01192119 -0.042322155 -0.006579981 -0.0034893875 0.0021478126 0.0071241106 0.039136156 -0.032771885
-0.021440072 -0.036960877 0.0025961443 -0.04877399 -0.02096308 -0.0043179924 0.054212496 -0.060768235
-0.014547997 0.009954025 -0.05386853 -0.071184225 0.030740608 0.0038964127 -0.040131234 -0.038396683
-0.019147372 -0.032330807 -0.022326153 -0.009004862 -0.0072384877 -0.008669199 0.014117336 0.016586704
0.017746046 -0.011943272 -0.0038069033 -0.021608261 -0.028539805 -0.016784253 0.01827734 0.016307415
0.015378205 0.032435007 0.027477864 -0.008151252 -0.035395622 0.0108247 -0.037544962 -0.01779135
