gain/classfy_weight/3054652060032968249/G_b2.npy (npy, 2720 bytes, 1 tensors)

array f4 [648]
00000000: 3acf 5a3c ace6 ce3a 336b 383b fbb1 943b
00000010: 3d62 2f3d 2671 34bc d60e f03b 9486 2f3d
00000020: 79f7 953c 25bb d8bc 83bc 8bbc 6a01 b73a
00000030: 279f c13c 38f6 80bc ca6a 1fbc 14c3 50bb
00000040: c1b3 313c ed54 fbbb 227c ddbb b9ce 973d
00000050: 6e76 06bc b0e5 c73c 6198 543a 175b 44bc
00000060: ec7f 5b3b 5671 643d 9181 653d c8e3 54bb
00000070: bfb7 3f3c bd59 c23c bcf6 8b3d 4780 ecbb
00000080: f18b e5bc f5ed 2ebc 9bfd f4bc b0f3 5f3c
00000090: 8411 38bc 4d7f 683c a97f aabc b997 5c3d
000000a0: d1b2 843c f235 6dbc a911 96bc bf6c 08bc
000000b0: b612 313c 81f2 a83c 7628 cfbb 9c82 b93c
000000c0: 13f0 a43c e824 0c3c a74e 023b b1c1 89bc
000000d0: 963d 763d 4056 cf3c 887f 0abc 5957 7c3c
000000e0: 0ad6 2abc 2bf4 e8ba 0c87 a23b 5815 9838
000000f0: 28e1 4ebc 9906 f23b 147d 3d3d a251 9c3c
00000100: 9563 bfb9 4bee 743d 326f e4bb 0732 943b
00000110: 3a97 19bc 716c 7cbc 27e2 67bc 9851 5e3d
00000120: 6489 52bc 698c cebb 6f72 a2bb 76f3 573d
00000130: b71a f03c 67f0 c13c c067 7fbc 7e9c 0f3c
00000140: 71fe 2f3d 9abd 2e3d 2b30 673d 6307 9dbb
00000150: 65d3 133d cfc1 823d 3965 83bb 70f9 4ebc
00000160: b405 fcba 8d07 073c bcf6 37bc e7c5 2ebd
00000170: 222f 4c3d b0fd 233d 9aff 3b3c 47c8 703d
00000180: 7aa3 1abc 267d 533d 2dba b73c 7e7b 2b3c
00000190: 442d 56bc d858 ac3b 7201 86bc 905b e73c
000001a0: f65c 4bbc df1b f93c 1e68 b63c 8439 5dbc
000001b0: 090d 88bb 2f3d 55bc 837b 093b 4506 9a3d
000001c0: cdc6 2c3d f936 9bbc ac55 a43b 5ed1 80bb
000001d0: 932f cfbb b66f 443d c6ca b83c 485c 073d
000001e0: 1d79 323d 50b5 ae3b c530 ddbc 3deb 84bc
000001f0: d29b cbbc d354 623d f2aa 46bc e7f7 bb3c
00000200: f935 463d 38aa 87bc 7dd0 9e3d 3181 e0bb
00000210: 2b5a ac3a 0160 5bbc 9981 053d cf0d dbb9
00000220: 9925 02bc 4de1 91bc adb7 3dbc f8d3 833c
00000230: 0429 303c 20f9 6e3d 8cd6 b7bc d26d 2d3c
00000240: a036 ccbc e799 083d f534 04bc bcb5 de3b
00000250: cc9f 9abc 3977 863d a31e 54bc 7b02 95bc
00000260: 66f9 90bb 9230 433c cbc8 aa3b 9138 8a3d
00000270: ce85 75bc fd0c 5e3d ed58 cf3c d0a1 a83b
00000280: 21f9 b03c 0c04 0d3c 002e c43c efa8 133c
00000290: 04fc a8bc 82b0 d5bb 0039 a23c 87b7 3a3c
000002a0: ba6c 02bc 826d 043c 222b 1abc 7466 5b3d
000002b0: 3bf6 e93c 809f 58bc 054f 11bc 887e 48bb
000002c0: b05d 483d 4aab 4a3d 6c0e d13c f312 9d3c
000002d0: 1e0c 78bb 1349 1c3c e03f 713b 66c7 58bc
000002e0: c702 473b fe59 ddbc 56b2 d2bb e3da 1e3d
000002f0: cd5e 9b3b 2026 36bc cc7b 1fbc b615 443a
00000300: e47f 763c 3211 08bc 3d33 3d3d 1855 2e3c
00000310: c5cd 6f3c 391b f2bb bda5 083d 07b5 9d3d
00000320: c13d 063d 6528 c83c 03f8 84bb 84fc 7bbb
00000330: 9b3b b5bb 90ff 2bbc 2d24 f93c 5e40 57bb
00000340: 45c9 223d 5973 89bc e918 89bb ba5b 603c
00000350: f476 363d ef5d 373b 7c8a 583d ef56 8fbc
00000360: 3528 0f3d 4dfd 08bc eb96 7fba d4b3 723c
00000370: 651e d93c c735 2d3d d675 30bc 6593 653c
00000380: 69e5 bd3c 923f c63c ac87 673d fe45 36bc
00000390: a3e4 5cbc 8740 d3ba 3e7c 10bb e55d fbbc
000003a0: 0bae 43bc 2649 dabb 85cc 38bc 5b2f 05bc
000003b0: 809b 24bb 024a e33b c55c 173d ef96 c3bc
000003c0: 5c2f 903c af95 c8bb 45fc e0bb e817 c23b
000003d0: 0f16 c93d 9103 d9bb 17a6 c13b 1dbc 4bbc
000003e0: f193 cc3c 14e3 453c 5bd6 2ebc e3af 463c
000003f0: 36be 333d b56e 89bb 764e aa3d 3796 ac3d
0.013355071 0.0015785298 0.0028140068 0.0045378185 0.042818297 -0.011013305 0.0073259873 0.042852953
0.01830648 -0.026456425 -0.017057663 0.0013962213 0.02363546 -0.015742406 -0.00973005 -0.0031854557
0.010846079 -0.007670036 -0.0067591826 0.07412476 -0.008206947 0.024401516 0.00081098644 -0.011984608
0.0033492995 0.055772148 0.056031767 -0.00324844 0.011701523 0.023724431 0.0683417 -0.0072174403
-0.02802083 -0.010676851 -0.029906085 0.0136689395 -0.011234645 0.014190507 -0.020812826 0.05385563
0.016198548 -0.014478194 -0.018318968 -0.008326708 0.010807684 0.020623447 -0.006321962 0.022645287
0.020134008 0.008553721 0.0019883306 -0.016815992 0.060117327 0.025309682 -0.008453257 0.015401685
-0.010427007 -0.0017772963 0.0049599465 7.2519004e-05 -0.012626924 0.0073860404 0.046261862 0.019081894
-0.00036504553 0.059797566 -0.0069712633 0.0045225653 -0.009374434 -0.015406714 -0.01415304 0.054277033
-0.012850139 -0.0063033593 -0.004957489 0.052722417 0.029309614 0.023674203 -0.015588701 0.008765338
0.042967264 0.042661287 0.05644242 -0.0047921403 0.036090273 0.06384622 -0.0040098694 -0.012632713
-0.0019227774 0.008241546 -0.01122826 -0.042669203 0.049849637 0.040036857 0.011474514 0.05878475
-0.00943839 0.051633023 0.022427643 0.010466455 -0.013072316 0.0052596144 -0.016358111 0.028241903
-0.0124123 0.030408798 0.022266444 -0.013502482 -0.0041519445 -0.013015076 0.002097816 0.07520727
0.04218178 -0.018947111 0.0050150957 -0.0039312085 -0.00632281 0.0479581 0.022557627 0.03304699
0.043572534 0.0053316727 -0.027000794 -0.016225452 -0.024854574 0.055256676 -0.0121257175 0.022945357
0.048391316 -0.016560659 0.0775461 -0.0068513383 0.0013149431 -0.013389588 0.032594297 -0.00041781223
-0.007943534 -0.017807627 -0.011579436 0.016092286 0.010751966 0.058343053 -0.022441171 0.010585265
-0.024928391 0.033349898 -0.008069267 0.006796567 -0.018875025 0.06565709 -0.0129467575 -0.01818966
-0.004424262 0.0119134355 0.0052119247 0.067490704 -0.014985515 0.054211605 0.025310958 0.0051462427
0.021603169 0.008606922 0.023947716 0.009012445 -0.020627983 -0.0065212855 0.01980257 0.011396295
-0.007960493 0.008082749 -0.009409698 0.053564504 0.028559795 -0.0132216215 -0.008868937 -0.0030592997
0.048917472 0.04947976 0.025519572 0.019174075 -0.003784902 0.009538907 0.0036811754 -0.013231134
0.0030366646 -0.02702045 -0.0064299507 0.038782965 0.0047415257 -0.011117488 -0.009734105 0.0007480042
0.01504514 -0.008304881 0.046191443 0.010640405 0.014636462 -0.007388499 0.033361185 0.07700544
0.032773737 0.024433324 -0.0040578856 -0.0038450072 -0.005530787 -0.010497943 0.030412758 -0.0032844762
0.039742727 -0.016778635 -0.0041838777 0.013693744 0.044547036 0.0027979573 0.052866444 -0.017497508
0.034950454 -0.008361173 -0.00097499666 0.014813382 0.026503751 0.042287614 -0.010770282 0.014012192
0.02318068 0.024200235 0.05652587 -0.011125086 -0.013482246 -0.0016117253 -0.002204671 -0.03068442
-0.011943351 -0.006661552 -0.01127923 -0.008128966 -0.00251171 0.0069363127 0.036953706 -0.023875682
0.017600708 -0.0061213593 -0.0068660104 0.00592326 0.098186605 -0.0066227396 0.005909692 -0.012434986
0.024972888 0.012078065 -0.0106712235 0.012126896 0.04388257 -0.0041941055 0.083157465 0.08427089
