gain/classfy_weight/9592735753895240/G_b1.npy (npy, 2432 bytes, 1 tensors)

array f4 [576]
-0.00844374 -0.009830343 0.0077596614 -0.00014023128 0.0010520945 -0.008716274 0.029066237 -0.007113207
-0.020053357 -0.013527911 -0.012562125 -0.006649421 -0.006659146 0.027309451 -0.0065017357 -0.0084522795
-0.006003988 -0.00787756 0.0036927026 -0.0077224467 -0.0077154445 -0.009424733 0.020319378 -0.003199732
-0.0062408973 0.03550749 -0.008445703 -0.006469871 -0.014778266 -0.007885101 -0.0087931175 -0.013455548
-0.00638812 -0.007742958 -0.0086665945 0.01442884 0.00878203 -0.006600073 0.00620267 -0.008855451
-0.0063922266 -0.0067126905 -0.0067563746 -0.007272723 -0.0072915195 -0.012565651 -0.0073683662 -0.007517691
-0.008784699 -0.0066708955 -0.0120294895 -0.01217534 -0.0060947696 -0.005983087 -0.008099624 0.0056891018
-0.010701427 -0.0133579355 -0.006248494 -0.008096793 0.0069910586 0.0035197265 0.018610194 -0.00872155
-0.0077793384 0.039650843 -0.0061520874 -0.0079056965 -0.015724953 0.00029041624 -0.020366251 -0.01959128
-0.012096976 -0.0070133815 -0.0063832817 -0.009230092 -0.0064587346 -0.0064463597 0.034841146 -0.01068724
-0.012014207 0.015156878 0.032351308 0.0585321 -0.009388405 -0.007026276 -0.007708644 -0.006147237
-0.008500849 -0.0065510706 0.02231704 0.017087862 -0.007745249 -0.008593245 -0.010625059 -0.0068466947
-0.0071717 -0.010526884 -0.011192813 -0.00872435 -0.0074218754 -0.016811859 -0.008053993 0.013610323
-0.014733205 0.02119604 -0.008902638 0.009329621 -0.013196759 -0.012729622 -0.0072753704 -0.007182711
-0.011924714 -0.0068765166 0.0023549555 -0.007926913 0.027263766 -0.014507101 0.0043633967 -0.0056349603
-0.010220039 -0.006700973 -0.0084640635 0.016653553 -0.0037291378 -0.0077675334 -0.011333157 0.012253022
-0.013062281 -0.013296702 -0.005804346 -0.012277058 -0.008290507 -0.008057337 -0.008484179 -0.009867206
-0.0070967022 -0.008123194 0.013236818 -0.009462626 -0.0066789472 -0.011243915 -0.00056940166 -0.011261674
-0.006956506 -0.008615194 -0.018811174 -0.012016616 -0.0022705023 -0.0061650355 -0.0075678006 -0.005453473
-0.010753351 -0.0064299377 -0.013452187 -0.0075012227 -0.0106697185 -0.006406079 0.017269548 -0.039466456
-0.00936299 0.015522727 -0.015287109 -0.0067873034 -0.007528031 -0.007359316 6.3891064e-05 -0.008798007
-0.009543641 0.03148647 -0.0077720433 -0.008601576 -0.0073848907 -0.018294577 -0.011582111 0.03245999
0.02509636 -0.008571685 0.02867018 -0.0073030298 -0.009439966 -0.01363777 0.0066669695 -0.010297352
-0.0075023845 -0.007831788 -0.0087630935 -0.011225411 -0.0114249615 -0.0070119905 -0.0066944556 -0.007969735
-0.007368982 0.007427237 0.00117172 -0.009382232 -0.0134284 -0.0072506038 -0.008421422 -0.0071332655
-0.005986413 -0.009220084 -0.011360593 -0.021442974 0.033088624 -0.014348536 0.01894459 -0.012689989
-0.012070348 -0.010541926 0.023275925 0.012668388 -0.01540656 -0.010079417 0.0063668103 -0.009531725
-0.008048605 -0.007377549 -0.0065785907 0.032495353 -0.0069144196 -0.017069874 0.014313224 -0.012761252
0.0021423537 0.009486874 -0.013365776 0.023104422 -0.007353066 0.035360668 -0.00898179 0.0066595445
-0.01175982 -0.008189793 -0.008918676 -0.010780735 -0.008407878 -0.007862599 -0.007325377 -0.0113315135
0.00044284813 -0.0093286615 0.008284903 0.0006879266 -0.007226237 -0.0068498137 -0.0113922255 -0.011161671
-0.0059537007 -0.007789199 -0.0074196705 -0.01439601 0.00038254695 -0.009161863 -0.0153404875 -0.0066254223
00000000: 9d57 0abc 720f 21bc c244 fe3b 0c0b 13b9
00000010: 6fe6 893a b4ce 0ebc 511c ee3c e815 e9bb
00000020: f046 a4bc 2ca4 5dbc 5fd1 4dbc 63e3 d9bb
00000030: f734 dabb 12b8 df3c 830c d5bb 6e7b 0abc
00000040: 1abd c4bb e210 01bc 4501 723b 940c fdbb
00000050: d7d1 fcbb 326a 1abc d374 a63c 98b2 51bb
00000060: 7180 ccbb 4d70 113d d95f 0abc 3601 d4bb
00000070: 8a20 72bc 8330 01bc 0211 10bc a974 5cbc
00000080: 6f53 d1bb a4b8 fdbb 55fe 0dbc f166 6c3c
00000090: 81e2 0f3c 6d45 d8bb c43f cb3b 7416 11bc
000000a0: e275 d1bb 21f6 dbbb 9464 ddbb 0650 eebb
000000b0: b3ed eebb 29e0 4dbc 5672 f1bb f656 f6bb
000000c0: b3ed 0fbc 8797 dabb 5617 45bc 147b 47bc
000000d0: a2b6 c7bb c50d c4bb 49b4 04bc a56b ba3b
000000e0: 0a55 2fbc 3edb 5abc 2bc0 ccbb 69a8 04bc
000000f0: 4015 e53b 36ab 663b 6874 983c d5e4 0ebc
00000100: d2e9 febb ec68 223d 7397 c9bb e586 01bc
00000110: 9ed1 80bc 0243 9839 20d7 a6bc e47d a0bc
00000120: 6532 46bc 82d0 e5bb d92a d1bb d039 17bc
00000130: cba3 d3bb fc3b d3bb 97b5 0e3d 8919 2fbc
00000140: 3dd7 44bc 8e54 783c ce82 043d 5bbf 6f3d
00000150: d3d1 19bc ad3c e6bb cb98 fcbb c36e c9bb
00000160: 2547 0bbc 5daa d6bb 3ad2 b63c d8fb 8b3c
00000170: dccb fdbb afca 0cbc ba14 2ebc 3d5a e0bb
00000180: 9400 ebbb f478 2cbc 0f62 37bc 93f0 0ebc
00000190: 3433 f3bb 06b9 89bc e5f4 03bc d5fd 5e3c
000001a0: 8a63 71bc 51a3 ad3c 5fdc 11bc 44db 183c
000001b0: 3837 58bc e88f 50bc 3b66 eebb f25c ebbb
000001c0: e05f 43bc 6754 e1bb 9955 1a3b e2df 01bc
000001d0: 4358 df3c 31af 6dbc d3fa 8e3b 79a5 b8bb
000001e0: f371 27bc d693 dbbb dbac 0abc 086d 883c
000001f0: 8d64 74bb cb86 febb b5ae 39bc e6c0 483c
00000200: 2d03 56bc 69da 59bc 6232 bebb b725 49bc
00000210: e8d4 07bc ec02 04bc 3a01 0bbc 10aa 21bc
00000220: 748b e8bb 2517 05bc 3ddf 583c 2109 1bbc
00000230: 12db dabb 6638 38bc e643 15ba e282 38bc
00000240: 67f3 e3bb be26 0dbc e419 9abc 57e1 44bc
00000250: b5cc 14bb 1104 cabb 50fb f7bb 0cb3 b2bb
00000260: d32e 30bc 3ab2 d2bb 9066 5cbc d1cc f5bb
00000270: 0bd0 2ebc 16ea d1bb de78 8d3c 94a7 21bd
00000280: 3a67 19bc 0953 7e3c c876 7abc 0768 debb
00000290: b3ad f6bb 6b26 f1bb 41fd 8538 8425 10bc
000002a0: ee5c 1cbc f5f7 003d a0ac febb a0ed 0cbc
000002b0: f4fc f1bb 82de 95bc e5c2 3dbc c4f4 043d
000002c0: e296 cd3c 4170 0cbc badd ea3c 414e efbb
000002d0: 16aa 1abc f470 5fbc 9876 da3b 3ab6 28bc
000002e0: 90d6 f5bb e650 00bc 1493 0fbc c9ea 37bc
000002f0: c32f 3bbc d7c4 e5bb 2a5d dbbb 7e93 02bc
00000300: 8077 f1bb 2e60 f33b 6694 993a efb7 19bc
00000310: cb02 5cbc 7996 edbb 01fa 09bc 2bbe e9bb
00000320: ac29 c4bb d60f 17bc c821 3abc 2da9 afbc
00000330: f087 073d 1f16 6bbc af31 9b3c ace9 4fbc
00000340: b5c2 45bc 0bb8 2cbc 27ad be3c 128f 4f3c
00000350: cc6b 7cbc 2424 25bc ada0 d03b f42a 1cbc
00000360: 4cde 03bc 5ebf f1bb 3891 d7bb d919 053d
00000370: 5b92 e2bb 1fd6 8bbc 0382 6a3c 9214 51bc
00000380: bb66 0c3b d56e 1b3c 21fc 5abc 7c45 bd3c
00000390: fdf1 f0bb 59d6 103d 5c28 13bc 4f38 da3b
000003a0: 43ac 40bc 7b2e 06bc a31f 12bc aea1 30bc
000003b0: 32c1 09bc 21d2 00bc b709 f0bb d0a7 39bc
000003c0: 122e e839 3ed7 18bc 67bd 073c f955 343a
000003d0: 12ca ecbb 6774 e0bb 75a6 3abc 71df 36bc
000003e0: 4317 c3bb 893c ffbb b520 f3bb 3edd 6bbc
000003f0: 9590 c839 a31b 16bc ab56 7bbc 121a d9bb
