gain/classfy_weight/9592735753895240/G_b3.npy (npy, 2432 bytes, 1 tensors)

array f4 [576]
00000000: 02e0 293b 070c a33a 1d19 2fbc dda9 493c
00000010: 7fee c4bc e5d3 483b 5816 49bd 471f b5ba
00000020: b046 a3ba 3549 0b3d 529e 21bc 2629 2b3a
00000030: c07c 9a39 2688 363c 473e efbc 3224 cdbc
00000040: f18f 2f3c 4665 08bb c761 c7bc a90a a03c
00000050: 1ab3 a1bc 082c 8abc 4bac 50bd 1c96 6ebc
00000060: 2518 dabb a037 7c3b c17c a7bc 1b9d 803b
00000070: 04ee 25bd 4e66 56bc 0927 5ebd f03c d8bc
00000080: a74e 033b a8eb 443c db20 0ebd 4b65 963b
00000090: 9e4e cfbc bc4d a5bb 7177 06bd 021d 813c
000000a0: 53e3 853c 7516 0a3c ddbb 80bc 0c67 303c
000000b0: 75da 94bc 7c0c acbc ef87 77bd 9c4a b7bc
000000c0: 9bcb 69bc 8c5b 573c af05 dbbc 0bd8 bb3c
000000d0: 6e89 cd3b 7c3b b73b d429 74bc b939 68bc
000000e0: 9846 dc3b 43e9 8a3b a8f2 08bd 3da6 0a3b
000000f0: c956 2bbc 7fa3 cdbb 1ded 3fbd 0815 09bc
00000100: 3aa2 363c fd0c fd3c 3931 02bd 2681 8fbc
00000110: 2f06 40bb 279a 04bc 9a86 adbc 66e0 3a3a
00000120: 8e5b 923c ac99 be3c b3b2 08bd 28c5 54bc
00000130: 0a63 be38 2f55 5bbc 43ad 4dbc fc34 9cbc
00000140: fca0 f53b 140d 523d 9263 f4bc e8ae 923c
00000150: df1b cfbb 1e50 20bc 200e 08bd 00d8 e1bc
00000160: 7d2c 883c 5d3d 123d c314 b0bc 4888 b1bb
00000170: 065f 8abc 1659 f8bc f68f fabc 032c bf3a
00000180: 8977 5e3c 1f72 3f3d 0ac7 15bd 0acf 033b
00000190: 8679 c3bb fa9b e0bb e0dd 04bd a4d4 7a3c
000001a0: 62c2 8d3c ee65 cb3c aec2 1abd 87cd bcbc
000001b0: 18ab 3fbc 38be deba 9e98 4cbb 89b0 683c
000001c0: 9ef5 033b cccd b53c 36a6 0ebd 86d3 10bc
000001d0: acf5 4ebc cd64 1b3b 5c7d a0bc 4b30 cdbb
000001e0: aa28 903b a53e 253c d997 15bd 4b76 dabc
000001f0: 2102 26bc e329 5cbc fdef 25bd 93d7 e6bc
00000200: 3b49 343c dfa6 6b3c 5bd0 25bd 9688 08bc
00000210: 4220 debc 3094 aebc b610 2fbd 4423 ffbc
00000220: b282 b13b 25b9 cf3c 10cb 28bd 2ecc a3bc
00000230: ce5d a5bc 882a 77bc 4528 c0bc bd3a 9abc
00000240: de7e e13c 53d7 213d 731e 3abd 74d0 b9bc
00000250: acc0 8fbc 85c6 e53b 1a30 03bd cc77 9cbc
00000260: 1b88 573c 2646 633c ae5c 2ebd 9b4a a2bb
00000270: 6a39 cabb 3b83 72bc a879 b6bc 7537 893c
00000280: 7896 8536 36b1 c43b 751c 29bd 6a99 c8bc
00000290: c311 513c 9a47 a9bb f743 03bd 6792 71bc
000002a0: 0b30 33bc 366b b03c cee2 f2bc 579b 883a
000002b0: 568b a9bb 22d7 98bc a3f8 04bd 4f25 273c
000002c0: 90a6 083c 82d1 a83b d15b 06bd 2a3a 8bbc
000002d0: db3b 48bc 11e2 81bc d360 23bd bdd1 85ba
000002e0: ced6 2e3b 9a01 923c b8eb fcbc f228 d7bc
000002f0: ba93 7ebc d0fa 36ba 15a5 5abd b4ca 17bd
00000300: 04eb 943c 20f2 db3b 1bc8 d8bc 3312 44bb
00000310: b2f3 a9bb 3887 09bc 7afa eebc c6c6 b2bb
00000320: 621b f5bb a8c9 8c3c 0b47 04bd 8aad 2f3c
00000330: c2f2 31ba 0d34 6bbc 7f78 2bbd 5b72 04bd
00000340: a3df 2ebb 5117 9d3b cd0b a7bc a08a 543c
00000350: 2ced 173b 290d c0bc 3090 59bd 1977 de3b
00000360: 51ed 8b3c 2200 043b 8928 a6bc 0a10 17bb
00000370: 7ec9 c63b 7f95 a4bc 06d4 1fbd 2c6d e3bc
00000380: 0905 19bc 5720 6a3c a783 d0bb ad67 133c
00000390: a32e e6bb 9aa7 bdbc ca9d 4cbd c1e2 b93b
000003a0: 4b6c eabb 1287 b43c 8d39 bcbc 71cc f1bb
000003b0: 52cd 68bb 9935 1c3b e514 2abd a227 d3bc
000003c0: 86b4 ff3b c782 a4bc af77 9fbc f681 9c38
000003d0: 5757 5abb 151c c0bc f661 14bd 9744 133c
000003e0: 83a8 763b fed1 dc3b cc54 d7bc 4ed4 403c
000003f0: 3555 6c3b 0fec c3bc e9f0 dfbc 18b5 4c3c
0.0025920873 0.0012439498 -0.01068714 0.012308565 -0.024039505 0.0030643877 -0.049093574 -0.0013818525
-0.001245698 0.034005363 -0.009864407 0.0006529264 0.00029466115 0.011140859 -0.0292045 -0.025041673
0.010715471 -0.0020812317 -0.024338616 0.019536333 -0.019738723 -0.016866699 -0.05094556 -0.014562156
-0.0066557103 0.0038485304 -0.02044523 0.0039249784 -0.040510193 -0.013085915 -0.054236446 -0.026396245
0.0020035894 0.012019075 -0.034699302 0.004589712 -0.025306042 -0.005044667 -0.032828752 0.015760902
0.016343748 0.008428206 -0.01571458 0.010766756 -0.018170575 -0.021002047 -0.06043237 -0.022374444
-0.014269735 0.013144385 -0.026736109 0.022930166 0.0062724864 0.005591808 -0.014902551 -0.014173918
0.0067222826 0.0042392327 -0.03343454 0.0021156215 -0.010457703 -0.006275594 -0.04685699 -0.008366831
0.011147076 0.030889982 -0.031785224 -0.017517637 -0.002930056 -0.008093393 -0.021182347 0.0007128775
0.017865922 0.023266636 -0.033373546 -0.012986459 9.0783535e-05 -0.013387009 -0.012553516 -0.019068234
0.0074959975 0.051282004 -0.029832635 0.017905667 -0.006320461 -0.009784726 -0.033216596 -0.027568817
0.016622776 0.03570305 -0.021494275 -0.0054178573 -0.016891014 -0.030315917 -0.030586224 0.001458526
0.013578304 0.046739694 -0.03656677 0.0020112419 -0.0059654145 -0.0068545314 -0.03243816 0.015309487
0.017304603 0.024828877 -0.037783317 -0.023047222 -0.011698507 -0.0016993945 -0.0031218897 0.0142022455
0.0020135413 0.022192858 -0.03482648 -0.008839494 -0.012631815 0.0023711205 -0.019591026 -0.0062618605
0.004399379 0.010085736 -0.036521766 -0.026667735 -0.0101323435 -0.013437721 -0.040512074 -0.028178966
0.011003788 0.014383047 -0.040481906 -0.008333346 -0.027114991 -0.021310896 -0.042740546 -0.031144746
0.0054171914 0.025356838 -0.04120928 -0.019994821 -0.020186331 -0.015085824 -0.023456702 -0.018826837
0.027526315 0.03951199 -0.045439195 -0.022682406 -0.017547928 0.0070121908 -0.032028295 -0.019100092
0.013155009 0.013871705 -0.042568855 -0.0049527413 -0.006171395 -0.014801796 -0.022274807 0.016750077
3.9812257e-06 0.0060025705 -0.041286904 -0.024487216 0.012760582 -0.0051660063 -0.03204724 -0.014744378
-0.010936747 0.021535497 -0.029649165 0.0010422271 -0.005174081 -0.01865727 -0.03246368 0.010201766
0.008340493 0.0051519284 -0.032802407 -0.016995508 -0.012221302 -0.015854867 -0.03988726 -0.0010209602
0.0026678327 0.01782303 -0.030874118 -0.026264641 -0.01553815 -0.0006980123 -0.05338009 -0.037058547
0.01817847 0.006712213 -0.026462605 -0.0029918074 -0.0051865214 -0.008394055 -0.02917217 -0.0054558245
-0.007480071 0.017186001 -0.032294314 0.010722527 -0.0006788188 -0.014355672 -0.04186296 -0.03233562
-0.002668359 0.0047940393 -0.02039137 0.012972504 0.0023182137 -0.023443775 -0.053116024 0.0067891
0.017080935 0.002014168 -0.020283 -0.0023050332 0.0060665 -0.020090817 -0.03902056 -0.027762018
-0.009339579 0.014289937 -0.0063633504 0.008996886 -0.0070246025 -0.023151208 -0.049955167 0.005672783
-0.007154023 0.022037063 -0.022976661 -0.0073791076 -0.003552277 0.0023835658 -0.041523833 -0.025775734
0.0078035025 -0.02008189 -0.01946625 7.462867e-05 -0.0033316219 -0.02345089 -0.036226235 0.008988521
0.0037637062 0.0067389 -0.026285551 0.011769367 0.003606153 -0.023916272 -0.027336555 0.012494348
