gain/weight4/D_b2.npy (npy, 3968 bytes, 1 tensors)

array f4 [960]
-0.007239306 -0.013127038 -0.021389421 -0.054996278 -0.026676234 -0.023922488 -0.017010817 -0.03076349
0.026333364 -0.051542893 -0.030174099 0.02855094 -0.038676623 -0.0076734973 -0.035559386 -0.009588116
-0.008483362 0.05063763 -0.02437217 0.022633549 -0.008155131 -0.035706162 -0.026351685 -0.009666389
-0.04055315 -0.0074714343 -0.06900873 -0.01918461 -0.00020111007 -0.010772042 -0.011468441 0.018486412
-0.0023732183 -0.014449755 -0.039480805 0.03610461 0.0043257065 0.019003727 -0.026519801 -0.051880755
0.018574676 -0.06021116 -0.036371756 -0.010016464 -0.019695694 -0.029233743 -0.024502894 -0.010072927
-0.000104624676 -0.022589076 -0.02159646 -0.019864889 0.0057892427 -0.05962537 -0.04759645 -0.034442298
-0.05685784 -0.022570578 -0.022151243 -0.010190479 -0.020182401 0.067162454 0.019623768 0.01590191
-0.0126613015 -0.03870391 -0.0146984225 -0.0068074265 -0.020523082 0.008122891 -0.014453023 -0.030174088
-0.00465284 -0.00875689 -0.049700454 -0.017025294 -0.01003501 0.047094252 -0.044643085 0.026897894
-0.06523125 -0.021730227 0.0027876205 -0.037031807 -0.05881505 -0.038890444 0.020816343 -0.0072007035
0.052524272 -0.052817933 -0.008910567 -0.026077962 -0.05283545 -0.009667997 -0.032941133 -0.022315852
-0.0032764277 -0.016728364 0.022199249 0.0010000293 -0.018269137 -0.017868396 0.033961866 -0.014652233
-0.00931042 0.033075668 -0.033820126 -0.0083301 -0.010154947 -0.018365161 -0.0031143774 0.01684836
-0.018434172 -0.015174526 -0.069552265 -0.025528312 -0.06344208 -0.011049928 -0.010872681 -0.08159807
-0.052988715 -0.035024136 -0.008096347 -0.029694362 -0.023193497 -0.022425845 -0.02263948 -0.027496384
-0.055130545 -0.00819653 -0.019227589 -0.025986629 -0.00941482 -0.009889089 -0.03667707 -0.018508382
-0.00815825 -0.05834199 -0.024277909 -0.038071454 -0.002142513 -0.010768418 -0.013597053 -0.018245496
-0.05077124 -0.07399824 -0.022771288 -0.017435845 -0.009718943 -0.013190239 -0.022144724 -0.037650995
-0.05844678 -0.03605705 -0.043139473 -0.0040602293 -0.08602231 -0.009347468 0.0010129147 -0.039534267
-0.015895238 -0.020898111 -0.013302706 -0.049654 -0.035641536 -0.021221008 -0.015042903 0.019913271
0.04041176 -0.012430406 -0.033445776 -0.021366658 -0.018068649 -0.016816534 -0.013820387 0.031569112
0.015057258 -0.024005715 -0.00789422 -0.028975565 -0.017769711 -0.009402669 -0.011439926 0.007991056
-0.038525343 0.020531463 -0.0039864583 -0.020699656 -0.0021190317 -0.019445974 -0.015806438 -0.03743102
-0.03503027 -0.005289014 -0.024809605 -0.044483863 -0.018000402 0.01379764 -0.015639381 -0.012290967
-0.021015462 -0.023700947 -0.016475925 0.033366468 0.0015969595 -0.045972254 -0.005842975 -0.03528409
0.010795328 -0.0287683 0.014323665 -0.013358404 -0.012143669 -0.008466363 -0.0070320955 -0.036295433
-0.012895275 -0.0054943245 0.0041485936 -0.020862382 0.024464946 -0.012392502 -0.040366847 -0.0044795373
0.0014157728 -0.012512803 -0.011312645 -0.010666385 -0.052376594 -0.014229916 -0.013419362 -0.0368877
-0.026070783 -0.020872895 -0.005339143 0.007460637 -0.01848603 -0.03273418 0.0012054903 -0.0068527167
-0.0073178145 -0.03988874 -0.06995113 -0.012391024 -0.027384581 -0.031188115 -0.010563614 -0.05038362
-0.020112425 -0.0127574485 -0.006390435 -0.07388094 -0.0889694 0.02860259 0.055355396 -0.029894877
00000000: b337 edbb ca12 57bc de38 afbc c743 61bd
00000010: 1e88 dabc 18f9 c3bc 455a 8bbc b703 fcbc
00000020: 11b9 d73c a41e 53bd ac2f f7bc a9e3 e93c
00000030: 616b 1ebd f671 fbbb b8a6 11bd 7917 1dbc
00000040: cdfd 0abc 6769 4f3d 25a8 c7bc fe69 b93c
00000050: 199d 05bc a040 12bd 7ddf d7bc c65f 1ebc
00000060: 0f1b 26bd efd2 f4bb 7354 8dbd 0b29 9dbc
00000070: 13e1 52b9 387d 30bc 21e6 3bbc d170 973c
00000080: ff87 1bbb aabe 6cbc a0b6 21bd 6de2 133d
00000090: a8be 8d3b b4ad 9b3c 0e40 d9bc ea80 54bd
000000a0: eb29 983c fa9f 76bd 8dfa 14bd 181c 24bc
000000b0: dd58 a1bc 9a7b efbc 4bba c8bc eb08 25bc
000000c0: f269 dbb8 ba0c b9bc 0feb b0bc b1bb a2bc
000000d0: b0b3 bd3b bb39 74bd 7ff4 42bd 5e13 0dbd
000000e0: c4e3 68bd efe5 b8bc 8676 b5bc f8f5 26bc
000000f0: 9055 a5bc 788c 893d 06c2 a03c b944 823c
00000100: 5971 4fbc fe87 1ebd a7d1 70bc d510 dfbb
00000110: 0620 a8bc e015 053c 5fcc 6cbc a62f f7bc
00000120: da76 98bb 0f79 0fbc b492 4bbd a178 8bbc
00000130: e269 24bc e7e5 403d abdb 36bd f958 dc3c
00000140: f697 85bd 9703 b2bc 83b0 363b aaae 17bd
00000150: 0de8 70bd 964b 1fbd 0987 aa3c e1f3 ebbb
00000160: b123 573d 9e57 58bd a0fd 11bc 73a1 d5bc
00000170: fc69 58bd 8566 1ebc 48ed 06bd bccf b6bc
00000180: 56b9 56bb ec09 89bc 33db b53c 6a13 833a
00000190: 28a9 95bc be60 92bc 991b 0b3d eb0f 70bc
000001a0: bb8a 18bc 5a7a 073d f986 0abd f97a 08bc
000001b0: ef60 26bc 8972 96bc 951a 4cbb 9205 8a3c
000001c0: 4303 97bc 939e 78bc 6b71 8ebd c020 d1bc
000001d0: eced 81bd c20a 35bc 5423 32bc e41c a7bd
000001e0: b20a 59bd 7875 0fbd 8aa6 04bc 9741 f3bc
000001f0: 4a00 bebc 68b6 b7bc 6e76 b9bc 1940 e1bc
00000200: 91d0 61bd bd4a 06bc 2d83 9dbc e9e1 d4bc
00000210: 9e40 1abc d805 22bc b23a 16bd e49e 97bc
00000220: 2eaa 05bc 03f8 6ebd 77e2 c6bc d0f0 1bbd
00000230: 6769 0cbb 056e 30bc 2cc6 5ebc 9477 95bc
00000240: 81f5 4fbd 648c 97bd da8a babc 9ed5 8ebc
00000250: 343c 1fbc df1b 58bc da68 b5bc ee37 1abd
00000260: e465 6fbd 8fb0 13bd 04b3 30bd ac0b 85bb
00000270: 772c b0bd 1f26 19bc c7c3 843a afee 21bd
00000280: bb36 82bc 8432 abbc 98f3 59bc fe61 4bbd
00000290: dcfc 11bd aed7 adbc 8276 76bc 2821 a33c
000002a0: cd86 253d e7a8 4bbc 70fe 08bd 2109 afbc
000002b0: b404 94bc d4c2 89bc e86e 62bc 9d4e 013d
000002c0: b8b2 763c a2a7 c4bc c256 01bc 2a5e edbc
000002d0: c991 91bc a70d 1abc 876e 3bbc ebec 023c
000002e0: c0cc 1dbd 9931 a83c d6a0 82bb 5392 a9bc
000002f0: 74df 0abb 2a4d 9fbc 817c 81bc 4551 19bd
00000300: e77b 0fbd 774f adbb 833d cbbc b634 36bd
00000310: 9475 93bc 7f0f 623c 291e 80bc 0d60 49bc
00000320: 9e28 acbc 7d28 c2bc 85f8 86bc 47ab 083d
00000330: 1251 d13a 674d 3cbd 6d76 bfbb 0d86 10bd
00000340: e3de 303c 7fab ebbc cead 6a3c 35dd 5abc
00000350: 3df6 46bc 80b6 0abc 7e6d e6bb 85aa 14bd
00000360: b446 53bc bc09 b4bb edf0 873b 96e7 aabc
00000370: b66a c83c ec09 4bbc b557 25bd 15c9 92bb
00000380: 7491 b93a 8002 4dbc ac58 39bc 10c2 2ebc
00000390: d788 56bd 9824 69bc e2dc 5bbc 8f17 17bd
000003a0: 6592 d5bc a2fd aabc faf3 aebb 5c78 f43b
000003b0: 0470 97bc 4714 06bd 8b01 9e3a c18c e0bb
000003c0: 47ca efbb 6062 23bd 8a42 8fbd b903 4bbc
000003d0: a155 e0bc 387e ffbc 0213 2dbc 0e5f 4ebd
000003e0: d0c2 a4bc 9e04 51bc db66 d1bb e44e 97bd
000003f0: 9735 b6bd fb4f ea3c 57bc 623d 1ae6 f4bc
