gain/weight4/D_b3.npy (npy, 3968 bytes, 1 tensors)

array f4 [960]
0	0xbdb657d0	-0.08903468
1	0xbd2d7134	-0.042344287
2	0xbd454db1	-0.048169795
3	0xbca7fc92	-0.020506177
4	0x3d30dbd4	0.043178394
5	0xbc7abf98	-0.015304469
6	0x3ddf04df	0.10889601
7	0x3d230257	0.039797153
8	0xbc38cf1b	-0.011279847
9	0x3a081ed0	0.00051925797
10	0x3d176dba	0.036969878
11	0xbc23a337	-0.009987644
12	0x3cdecec6	0.027198207
13	0x3cd18d54	0.025580086
14	0x3d149f77	0.03628489
15	0xbd238ba9	-0.039928112
16	0x3d0682c4	0.03283955
17	0xbb2d42ba	-0.0026437477
18	0xbcfdd097	-0.030983252
19	0x3d314763	0.04328097
20	0x3d9a016f	0.07519805
21	0xbc9e2d8a	-0.019308824
22	0xbd2e403b	-0.042541724
23	0xbb1b4788	-0.002369376
24	0xbce40c7d	-0.027837986
25	0x3c8c5ad1	0.017133148
26	0x3c394e1e	0.0113101285
27	0x3c04d15a	0.008106554
28	0xbc68d025	-0.014209782
29	0xbc241840	-0.010015547
30	0xbc08dcef	-0.008353456
31	0x3d76a35d	0.06021439
32	0x3d08a74c	0.03336267
33	0x3d2116bd	0.039328326
34	0xbce02413	-0.027360952
35	0x3ce25cdd	0.027632171
36	0xbce122d0	-0.02748242
37	0x3d8e6617	0.06953066
38	0x3d8443ce	0.06458245
39	0xbd391aa5	-0.045191426
40	0xbcfbc02c	-0.030731283
41	0xbd9a4cd1	-0.07534183
42	0x3e170bd7	0.1475061
43	0xbd926f22	-0.07150103
44	0xbd4e36c9	-0.050345216
45	0xbc93f36a	-0.018060405
46	0x3ba338a9	0.0049811197
47	0xbdb090e4	-0.08621386
48	0x3d04abcf	0.032390412
49	0x3cde0051	0.02709976
50	0xbd9fa181	-0.07794476
51	0xbd1de3c6	-0.0385473
52	0x3d5b26f6	0.053503953
53	0xbcb19796	-0.021678727
54	0x3d0a4f35	0.033766944
55	0xbc9ae7c7	-0.018909348
56	0xba203fdc	-0.00061130314
57	0xbb8ec49e	-0.0043569347
58	0x3cec2f67	0.028831197
59	0xbd81e8de	-0.06343244
60	0xbe169cc6	-0.14708242
61	0x3cd1dc0a	0.025617618
62	0x3bad14f3	0.0052820384
63	0xbd40ca39	-0.047067855
64	0x3c58c291	0.013229982
65	0x3c8d4261	0.017243566
66	0xbd55c4bb	-0.05218957
67	0x3d0ad312	0.0338927
68	0x3bfaf601	0.0076587205
69	0x3ca6a504	0.020342357
70	0x3c12a2ce	0.0089499485
71	0x3d26625c	0.040621147
72	0x3cf4f953	0.029904043
73	0x3dafff8c	0.085936636
74	0xbd71a408	-0.058994323
75	0xbcaa4e77	-0.020789368
76	0xbbdd81d3	-0.006759861
77	0xbca4d031	-0.020118805
78	0xbd0daf49	-0.034590993
79	0xbc7332bd	-0.01484364
80	0x3caa9da9	0.020827131
81	0x3cb11564	0.021616645
82	0x3d3fd0cb	0.04682998
83	0xbd84c847	-0.06483512
84	0x3d1bcb12	0.03803546
85	0x3d039c37	0.0321314
86	0x3d6a3d3f	0.057187315
87	0x3d66d07b	0.056351166
88	0x3d8af8e1	0.06785751
89	0x3d64058c	0.055669352
90	0xbc986202	-0.018601421
91	0x3dbb6ddd	0.09151814
92	0x3d5585da	0.052129604
93	0x3d440dbf	0.04786467
94	0xbd4d2f55	-0.050093967
95	0x3c6c5d95	0.014426609
96	0xbc042b27	-0.008066929
97	0x3d42f7b1	0.0475995
98	0x3a48310e	0.0007636704
99	0xbb06c276	-0.0020562685
100	0xbcbcd7ec	-0.023052178
101	0xbd393c5d	-0.045223583
102	0xbda82c95	-0.08211628
103	0x3a807a13	0.0009802006
104	0x3d1562a2	0.036471017
105	0xbaa457db	-0.001253839
106	0x3cc60cb3	0.024175977
107	0xbc184756	-0.009294352
108	0xbd159131	-0.03651542
109	0x3bafe1d1	0.0053674956
110	0x3d69d10f	0.05708414
111	0x3bd26bcc	0.006421542
112	0xbca4b0d7	-0.020103855
113	0x3d72a2db	0.059237342
114	0x3d339a23	0.043848168
115	0xbbc77558	-0.0060869865
116	0x3d24114d	0.04005556
117	0x3c7876ff	0.01516509
118	0x3d2d7263	0.042345416
119	0x3d0dc4f2	0.03461165
120	0x3d836d9e	0.06417392
121	0xbbd2fa7b	-0.006438551
122	0x3be127d7	0.0068712044
123	0xbd445586	-0.047933124
124	0x3c656f3f	0.014003574
125	0x3d34428a	0.04400877
126	0x3cea01c4	0.028565295
127	0xbce5c679	-0.02804874
128	0x3c0e991a	0.008703494
129	0xbc2db5a4	-0.0106023885
130	0xbc5c1562	-0.013432832
131	0x3d4c20b2	0.04983587
132	0x3da9dbbe	0.082938656
133	0xbc02b7bb	-0.007978375
134	0x3d140705	0.036139507
135	0x3d07628a	0.03305296
136	0xbbfb35e5	-0.007666337
137	0xbd16ea2f	-0.03684443
138	0x3d39fc16	0.045406424
139	0x3c5611b2	0.013065742
140	0xbd6ccc42	-0.057811983
141	0x3ca52199	0.020157622
142	0x3d38f19b	0.045152288
143	0x3c3cb263	0.01151714
144	0xbd6f7160	-0.058457732
145	0x3dbdf143	0.09274533
146	0xbd014658	-0.031561226
147	0x3cf5aed6	0.029990595
148	0xbd927e17	-0.07152956
149	0x3c629599	0.013829612
150	0xbd373b27	-0.044734146
151	0x3d536118	0.051606268
152	0xbd060783	-0.032722007
153	0x3d68a393	0.05679662
154	0x3d2acfbf	0.04170203
155	0xbd7746c0	-0.060370207
156	0x3cd10038	0.0255128
157	0xbd2304d6	-0.039799534
158	0xbd3811ee	-0.044938974
159	0x3c5b8fd0	0.013400987
160	0xbdb509f5	-0.0883979
161	0xbd1aad80	-0.03776312
162	0x3dbf35c2	0.09336425
163	0x3d8d8bb9	0.069114156
164	0x3d2136e8	0.039359003
165	0x3cb4a0d6	0.022049349
166	0x3c27f614	0.010251541
167	0xbcb3f802	-0.021968845
168	0x3d64a68a	0.055822887
169	0xbc241162	-0.01001391
170	0xbcd55c24	-0.026044913
171	0xbcbd2b0b	-0.023091814
172	0xbbf28bc2	-0.0074019143
173	0xbdb27fb5	-0.087157644
174	0x3d81a6a9	0.06330616
175	0xbd4cc627	-0.04999366
176	0x3dcd55ce	0.100261316
177	0x3d8c0aa3	0.06837966
178	0xbafa95b9	-0.0019118107
179	0x3d1e19de	0.038598888
180	0xbcb400bc	-0.021973006
181	0x3d523a1d	0.051324952
182	0x3c3bdfb3	0.011466908
183	0xbd49c9fb	-0.04926489
184	0xbc264567	-0.010148383
185	0x3c9d42c9	0.019196885
186	0xbdbfd4e6	-0.09366779
187	0x3d879eab	0.066220604
188	0xbc1a21fe	-0.009407518
189	0x3cda0f62	0.026618663
190	0x3d21a3b0	0.039462745
191	0xbd43a21c	-0.04776202
192	0xbc0bb1ec	-0.008526307
193	0x3d4bbc21	0.04973996
194	0x3d531c38	0.051540583
195	0xbd14a74e	-0.036292367
196	0x3aef5b97	0.0018261549
197	0x3d0b6a12	0.034036703
198	0x3d3acab6	0.045603476
199	0x3d757ea3	0.059935223
200	0xbd9d404b	-0.076782785
201	0xbd2b4b60	-0.04181993
202	0xbddda122	-0.10821749
203	0x3d17cc36	0.037059985
204	0x3c4140e4	0.011795256
205	0xbd895c12	-0.06707014
206	0x3d901693	0.07035556
207	0x3ca442fa	0.020051468
208	0x3ce56ae0	0.028005064
209	0xbc415ea8	-0.011802353
210	0x3c8e4420	0.017366469
211	0xbd192a1d	-0.037393678
212	0x3d0e8195	0.034791548
213	0x3bfd2630	0.0077254996
214	0xbdb9f5cf	-0.090800874
215	0x3d0059e9	0.031335745
216	0x3d0a7883	0.033806335
217	0x3cf63ea4	0.030059166
218	0x3dc8d3fe	0.09806059
219	0x3d377ad7	0.044794884
220	0x3c9a23c6	0.018815886
221	0x3ccb6b03	0.0248313
222	0x3cd736ef	0.026271312
223	0x3caa0f2d	0.02075919
224	0x3d43f7ec	0.04784386
225	0xbbca488c	-0.006173199
226	0x3da595f0	0.08085239
227	0x3d4262f7	0.04745766
228	0xba4989f8	-0.00076881004
229	0xbcc5fef4	-0.024169423
230	0xba7eff28	-0.00097273523
231	0x3d9d593e	0.07683037
232	0x3d846842	0.06465198
233	0xbd03456b	-0.032048624
234	0xbb85fe24	-0.004089134
235	0xbd3b7a45	-0.045770902
236	0xbda92843	-0.082596324
237	0x3c6866e7	0.01418469
238	0x3d3f49f3	0.046701383
239	0xbc3fcbde	-0.011706321
240	0x3d1ad368	0.03779927
241	0xbccfe2b3	-0.025376653
242	0x3c26f7ef	0.010190948
243	0x3d9f139a	0.077674106
244	0xbb7c499c	-0.0038496023
245	0xbd367e68	-0.044554144
246	0x3d7acdb5	0.061231334
247	0x3cfedb6d	0.03111049
248	0x3d942f17	0.07235544
249	0x3ca0e273	0.01963923
250	0x3b963cea	0.0045848982
251	0xbcf5fa2a	-0.030026514
252	0x3d507847	0.050895955
253	0x3b7415a4	0.0037244344
254	0xbd127fc9	-0.035766397
255	0x3c6c7373	0.014431822
