gain/weight4/G_b2.npy (npy, 3968 bytes, 1 tensors)

array f4 [960]
00000000: e64c bd3c 13e1 bc3c 9130 1fbc b172 353a
00000010: 0785 b43d 54ee 603b f6ff 843c ffe4 dd3c
00000020: 1483 4d3d 8f80 673d 56c7 be3b 0a1f 993b
00000030: 635f 23bc 216d 383d 5103 283d c1b2 993c
00000040: d8b1 533d 3c00 c13a 20ff 60bc ce2f 22bb
00000050: 0580 7d3c d101 f9bb 59f9 35bb 4ff0 5b3d
00000060: e8b1 993d ce54 ce3c 8cbc a1bc 4a46 27bb
00000070: d786 f6ba 2cdb 91bb 3540 013d ef94 a73d
00000080: e66a b3bc 64b6 003d 7cfb ee3c 5ff8 f13c
00000090: 74f9 933d bca6 973c ed1b 87bc 3c3f d33c
000000a0: a5bb d53b 019c 0abc 42f7 0c3d 312a 8abb
000000b0: 1e6b 4c3d 5e34 3e3d a30c 4dbc 71ba 2b3d
000000c0: 42e6 d5bc dbf4 aa3d 64e7 2f3d 5a4c 973d
000000d0: 0a54 3a3d a6d5 193c ee06 b4ba 92cd 45bc
000000e0: ae63 d0bc b491 263d d42c 10bd 323e 573d
000000f0: 8671 d6ba 65bb 1fbb 6427 be3c bf6b c23c
00000100: fcc8 a73b 1b81 68bb 60d2 273d b087 383d
00000110: b91e 813d 78ea 813d 3af8 89bc b67f ba3c
00000120: b4a7 5ebc 6d23 96bb 6b31 20bc dbbd 45bb
00000130: d0d7 f8bb 136e 02bc 316f 18bb fa2b 12bc
00000140: 157b 97bc 2802 853c d0b2 b1bc bdc2 ec3b
00000150: 1a36 b0bc 3c02 a23d 510b be3c 78df 803d
00000160: 590a c73b 0697 613b 69a3 2e3d cadd c43c
00000170: f989 1f3c ada2 603d 1aac 993b fb6a 0bbd
00000180: c446 19bc 9bdb 133d 9aad 07bc 5494 343d
00000190: cddb 05bc b150 363d be5c b4bc c4b8 173d
000001a0: 22b3 303d f724 843d cc6b 5c3d a1fc 183d
000001b0: 5856 613d 11eb 153d da65 06bc e6ca 0a3d
000001c0: afa3 ea39 1c7c 85bc 1a3d 193c 71bf a13d
000001d0: 2ec6 723c ad1d 9e3b 918e 0a3c 0d6d 84bb
000001e0: 683b 58bb 5f99 19bc a7c8 853d 9d6f 15bc
000001f0: 5e62 013d fd71 ef38 1b95 2abc ffe4 d2bc
00000200: 6704 1b3d 57d9 82bc b4ce bcbc ca8e 9e3b
00000210: 6a78 ffba 105f ac3c e02a 80bc c1ff c33d
00000220: 1e05 f43c 6e22 22bc 87a0 a8bc f588 303c
00000230: 8acf 513d 3915 b139 cb63 843c 112d a53c
00000240: f8a0 7ebc 0378 8cbb 1aa6 af3d 8d37 0abc
00000250: e7f4 07bc 0a46 3d3d f027 fdbc c4e2 8fba
00000260: f8eb bd3c 5021 98bb a8ac 3abd aaf0 d53c
00000270: a3c5 e63b ff0b 21bc a7b2 093c 8960 7f3d
00000280: 2367 24bc 1e8f 293d a01c 8e3d 6185 28bc
00000290: 124b 343c 7e26 4bbb 4f04 a13c 9e54 893d
000002a0: bbcc 033c 7176 c53c 7515 893d ba6b aabb
000002b0: ed6b 01bc 61da 2fbc 718a 29ba b1ca ba3c
000002c0: 7c6c 55bc 20dc 8d3d 2a53 e33c 9f0a 823d
000002d0: b433 7f3a bec4 553d a2b8 113d 231d 533c
000002e0: a1fa 1fbc 4575 b7bc 4b58 c13c 6f7b dbbb
000002f0: 3171 b53d db29 963d 12a7 c33c 6021 da3c
00000300: b352 413d 9168 3bbc fef4 17bb 5984 363b
00000310: 7ced 8d3d 41ff 0c3c d8eb 8ebb 2fd4 2dbc
00000320: b379 f3bb b60a 67bc cc94 083d 907a 80ba
00000330: 4d80 613d cb6f 3e3d e893 71bb b8b8 533c
00000340: afd2 f73c 77b4 183d c14c 70bc 9d33 98bb
00000350: e407 b5bc 1dac 8f3b a3e6 a83b bc1a 0a3d
00000360: 58cd 8fbc 3173 0ebd f39d 9abc 89ec 4c3d
00000370: 4c60 35bc 50c1 063a dc92 2bbc 96de 963d
00000380: d5d2 75ba 0fa3 733d 1c97 5638 b913 f33c
00000390: 21e2 223c 44eb dabc c6a3 89bc a30f cb3c
000003a0: f004 eabb a16e c6bc d479 d13c 1574 2a3d
000003b0: 6c9e a43d be62 ec3c ff6b f53c c84c 703b
000003c0: d8f1 eb3c c091 f5bb b083 803d 0086 75bc
000003d0: 00e0 1f3d 7eaa f13c 0e6a 723c 1150 2c3c
000003e0: 0030 483d 8d5e 1fbc 93aa 65bb 6bd7 47bc
000003f0: aa8a 9f3c 956e 193d 425c e0bc 956c 983c
0.023107957 0.023056543 -0.009716169 0.00069216924 0.088144355 0.0034321742 0.016235333 0.027086733
0.050173834 0.056519087 0.0058221025 0.0046728896 -0.009971472 0.04502595 0.041018788 0.018761994
0.051683277 0.0014724801 -0.013732702 -0.0024747732 0.015472417 -0.0075990935 -0.002776703 0.053695973
0.07504636 0.025186922 -0.019743226 -0.0025524073 -0.0018808496 -0.004451176 0.031555373 0.08182704
-0.02190156 0.03142394 0.029172651 0.029537378 0.07225314 0.018512122 -0.016492808 0.025786988
0.006522613 -0.008460046 0.03441549 -0.0042164554 0.049906842 0.04643666 -0.01251522 0.04192585
-0.026110772 0.08347484 0.04294528 0.0738761 0.045490302 0.009389317 -0.0013734975 -0.012072938
-0.025438156 0.040666297 -0.035199 0.05254955 -0.0016360737 -0.002437317 0.023212142 0.023733018
0.0051203948 -0.0035477343 0.040972114 0.045051277 0.06304688 0.063435495 -0.016841996 0.022765975
-0.013589788 -0.00458186 -0.009777407 -0.0030172977 -0.007594086 -0.007960814 -0.0023259635 -0.008921618
-0.018491307 0.01623638 -0.02169171 0.007225363 -0.021510173 0.079105824 0.023198755 0.06292623
0.0060742316 0.0034422292 0.04263631 0.024031539 0.009737485 0.05484264 0.0046897056 -0.03403757
-0.009355251 0.036098104 -0.008281136 0.04408677 -0.00817008 0.044510547 -0.02201688 0.03704144
0.043139584 0.06452363 0.05381374 0.0373503 0.055013984 0.03660113 -0.008202994 0.033884905
0.00044753912 -0.016294532 0.009352947 0.07897843 0.0148177575 0.004825315 0.008456842 -0.00404132
-0.0032994393 -0.009374945 0.06532412 -0.009120849 0.03158795 0.0001141764 -0.010411526 -0.02574396
0.037845995 -0.015972776 -0.023047782 0.004838799 -0.0019490842 0.021041423 -0.015645444 0.095702656
0.029787596 -0.009895904 -0.020584358 0.010774841 0.051223315 0.00033775883 0.016160866 0.02016309
-0.015541308 -0.0042867674 0.08576603 -0.008436096 -0.008298135 0.046209373 -0.030902833 -0.0010977616
0.023183808 -0.004642643 -0.045574814 0.026115734 0.007042603 -0.00982952 0.00840441 0.062347922
-0.010034355 0.041396253 0.069390535 -0.010285706 0.011004226 -0.0030998285 0.019655375 0.067055926
0.008044417 0.024104329 0.06693546 -0.0052008303 -0.007899267 -0.010733218 -0.0006467468 0.022801729
-0.013026353 0.06926751 0.027749617 0.06349682 0.00097351824 0.05218958 0.03557647 0.012885365
-0.009764344 -0.022394786 0.023601672 -0.006698064 0.0885948 0.07332202 0.023883376 0.026627243
0.04719801 -0.011438505 -0.0023186798 0.0027849881 0.06930062 0.008605779 -0.004361611 -0.010609671
-0.007430279 -0.014101675 0.03334503 -0.0009802151 0.055053998 0.046493333 -0.003686184 0.012922458
0.030251829 0.03728148 -0.014666737 -0.0046448247 -0.02209849 0.004384531 0.005154447 0.033716902
-0.01755397 -0.034777824 -0.018874144 0.050030265 -0.011070322 0.00051405 -0.010472026 0.07366674
-0.0009377425 0.059481677 5.1162307e-05 0.02967249 0.009941609 -0.026723512 -0.016801726 0.02478773
-0.007141702 -0.024222674 0.025570787 0.04161461 0.08038029 0.028855678 0.029958723 0.003666686
0.028801844 -0.0074941814 0.062751174 -0.014985561 0.039031982 0.029500242 0.014795793 0.010517136
0.0488739 -0.0097271325 -0.0035044297 -0.012197356 0.0194753 0.037458975 -0.027387742 0.018606463
