gain/weight4/G_b3.npy (npy, 3968 bytes, 1 tensors)

array f4 [960]
000000 27 8e a8 3c 8b 60 0a bd 62 f5 8e bc 97 2a 79 3b
       0.020575596 -0.033783477 -0.017450992 0.003801977
000010 f1 cd d4 bc d5 9e b1 3b 47 e6 ab bd b2 de 1f 3b
       -0.025977107 0.0054205456 -0.08393531 0.0024394211
000020 56 66 4d 3c 5f 58 0b bd ba 2c 1c 3c 7a 65 bb bb
       0.012536606 -0.034019824 0.009532148 -0.005718884
000030 7d 8d cf bc 08 f1 0c 3c f7 11 63 bd 29 66 19 bd
       -0.025336022 0.008602388 -0.055437054 -0.037450943
000040 0a 3c f5 3b c2 c2 2b ba 85 68 05 3d 41 12 85 3a
       0.007483964 -0.00065521535 0.03257038 0.0010152535
000050 9a 88 b3 bc 4d ad 51 3b 24 ec 16 bd 51 cd 9f bc
       -0.021915723 0.0031994164 -0.036846295 -0.019507082
000060 cc 81 ed 3a f5 dd 58 3c d8 62 ca 3c 12 36 ef 3b
       0.0018120348 0.013236512 0.024705335 0.007300147
000070 ed 7d bd 3b 0e de 54 3c 74 a5 43 bd 17 97 c6 3c
       0.005782834 0.012992395 -0.04776521 0.024241967
000080 86 c4 c3 bb b3 fb bd bb a5 13 62 3c 9a 27 f2 3c
       -0.005974355 -0.005797827 0.013798629 0.0295599
000090 43 be 90 3c 13 03 bd ba e2 9c 3e bd 28 4b 01 bd
       0.017668849 -0.0014420472 -0.046536334 -0.031565815
0000a0 50 eb 38 bc f8 33 a7 bc 44 60 85 3c 33 d8 2a 3c
       -0.011286572 -0.020410523 0.016281255 0.0104275225
0000b0 4a 52 05 3c a9 0f d9 3c ec 34 46 bd 80 b9 13 bc
       0.008137295 0.026496725 -0.048390314 -0.009016395
0000c0 ea e9 c7 bc 50 d8 fc bc 5a c6 57 3c 58 66 3f 3c
       -0.024403531 -0.030864865 0.013169849 0.0116821155
0000d0 e9 89 aa bc 4c a0 54 bc 47 41 54 bd 84 74 0c bc
       -0.020817714 -0.012977671 -0.051820066 -0.008572701
0000e0 b0 2f 61 bc 70 7f 60 bc 0a 07 22 3d cf ec 80 3c
       -0.01374428 -0.0137022585 0.039557494 0.01573792
0000f0 88 f5 20 bd f7 31 ab bb cf e8 5f bd 29 0e 9d bc
       -0.039296657 -0.005224462 -0.054665383 -0.019171791
000100 5b 43 85 bc a6 b8 a2 3b a3 d8 71 3d a2 cf f0 3c
       -0.01626747 0.0049658595 0.05904449 0.029395882
000110 94 a4 b0 bc 21 4e ae bc 76 52 4d bd 02 70 29 bb
       -0.021562852 -0.02127749 -0.05012747 -0.0025854115
000120 49 8e ea bb 3d c4 0e 3c 96 e9 17 3d 56 f7 e6 3a
       -0.007158075 0.008713779 0.037088 0.0017621319
000130 b5 bb 20 bd 66 f8 17 3c f3 38 88 bd 13 cd 63 3c
       -0.03924151 0.009275531 -0.06651487 0.013903874
000140 b4 2a b2 3b 26 4a fd bc 36 6c d9 3c 83 23 a4 bc
       0.0054372195 -0.030919146 0.026540857 -0.020036465
000150 19 f0 20 3c 01 68 0c bc a6 2d 97 bd 80 3f 05 bd
       0.009822869 -0.008569718 -0.073817536 -0.03253126
000160 3d f3 32 3c 5a 7d fc bc 97 e1 a8 3c bb f0 a4 bc
       0.01092225 -0.030821491 0.020615382 -0.02013432
000170 f3 7f 83 39 a7 d5 2e bc d3 0e 37 bd 11 03 e0 bc
       0.00025081597 -0.010671056 -0.04469187 -0.027345212
000180 84 10 cd bb 82 40 04 bb 75 28 fc 3c 42 d0 83 bc
       -0.0062580723 -0.0020180051 0.03078101 -0.016090516
000190 3f 12 0f 3c 80 27 91 3c ba 45 4d bd 95 76 ee bc
       0.008732378 0.01771903 -0.050115325 -0.029109279
0001a0 92 df 93 bb 73 0a 64 bd c8 7a 7a 3a 2d 80 ca bb
       -0.0045127356 -0.055674028 0.0009555039 -0.0061798305
0001b0 8b 59 55 bb ec a0 d3 3b 3d 5c 88 bb 8a 57 b5 bc
       -0.0032554592 0.0064583924 -0.0041613863 -0.022136468
0001c0 65 76 a4 bc b0 aa 15 bd c9 0d db 39 1f 8d 46 3c
       -0.020075986 -0.036539733 0.00041781206 0.012118607
0001d0 a2 22 8e 3c 09 db 70 bc e2 77 80 bd a7 cb 19 bc
       0.017350499 -0.01470066 -0.06272866 -0.009386933
0001e0 fb ec 52 bb 54 b8 b0 39 a0 c4 86 b9 99 10 24 3b
       -0.0032184708 0.0003370667 -0.0002570497 0.0025034307
0001f0 43 a7 97 3c cf ac 98 bc a6 71 88 bd 21 6e 82 bc
       0.018512374 -0.018637089 -0.06662302 -0.015921654
000200 8f b4 8c bb 2a f9 5d 3b ac 50 aa 3c 18 9d ab 3c
       -0.004293985 0.0033870437 0.02079042 0.020948932
000210 49 38 6f 3c d5 29 86 bc 6e e7 89 bd 06 e3 12 bb
       0.014600822 -0.016377369 -0.06733595 -0.0022413149
000220 3f c1 ad bc ae 92 31 bc 0a d3 24 3d e2 ed 3d 3c
       -0.021210311 -0.010838194 0.040240325 0.01159236
000230 9c f3 cd 3c 35 17 02 bd ec 0e ac bd 1b d4 b3 ba
       0.025140576 -0.031760413 -0.084012836 -0.0013719829
000240 af 8c 01 bd c0 72 f0 ba ed b0 4e 3d f6 5c 1d bc
       -0.031628307 -0.0018344745 0.0504617 -0.009604683
000250 75 40 05 3d 07 54 de bb 45 49 67 bd af b1 a8 bc
       0.032532174 -0.006784919 -0.05646636 -0.020592539
000260 90 0b 9a bc e0 e6 8c 3c 32 cf b3 3c 4e 01 f7 3c
       -0.018804342 0.017199934 0.021949384 0.03015199
000270 34 ca bb 3c 19 a1 b7 bc 0b 8c 63 bd f3 df 0e bc
       0.022923566 -0.022415685 -0.055553477 -0.008720386
000280 ea c7 61 bc 3c f4 49 bb 9f b9 42 3d b7 11 1f 3c
       -0.013780573 -0.003081574 0.047540303 0.009708813
000290 01 a8 f0 3c 21 2b c2 bc 7e 37 bc bd ad c7 14 bd
       0.029376986 -0.023702206 -0.09190272 -0.03632324
0002a0 f9 1d c1 bc b1 64 7f ba 71 e8 95 3c 5a 9c 90 3c
       -0.023573862 -0.0009742482 0.018299313 0.01765268
0002b0 60 36 ba 3a 41 d3 b6 bc ca ea bf bd da 75 38 3b
       0.0014206879 -0.02231753 -0.09370954 0.0028146417
0002c0 06 ca 9e bc 61 83 26 3c 42 0e 22 3d db fd e8 bb
       -0.019383442 0.010163159 0.03956438 -0.00711034
0002d0 63 86 dd 3b ff 4c 17 bd 65 3b 5d bd 88 eb 1e 3d
       0.006760405 -0.036938664 -0.05401172 0.03879884
0002e0 1a 58 87 bc 6a e1 49 3c 96 3a 56 3c fd e4 9d 3c
       -0.016521502 0.012321809 0.013075491 0.01927423
0002f0 8b 93 4f 3c b6 87 c4 bc 0c 0c 5e bd 62 82 d6 bc
       0.012669454 -0.023990493 -0.054210708 -0.026185218
000300 fa 0e 9d bc 1f 71 3d 3c c9 88 bf 3c 37 ad 49 3c
       -0.01917218 0.011562615 0.023380654 0.012309364
000310 66 10 62 3c 92 9f 4a 3b 57 9f 8e bd bf 71 69 bc
       0.013797855 0.0030917865 -0.069639854 -0.014248311
000320 0c 49 db bc a2 f3 e0 3c 3b 06 6c 3c 84 1e 28 3c
       -0.02676823 0.027459923 0.014405782 0.010261182
000330 aa a4 bd bc 8c a9 08 bd 20 d6 1f bd 81 39 62 bc
       -0.023149807 -0.033364818 -0.039022565 -0.013807655
000340 44 cc fe bc c2 8c fe 3c 87 3c ba bb cc 9c c5 3c
       -0.03110326 0.031072978 -0.005683485 0.024122618
000350 7d 40 1d 3d af 69 29 bb 9f 4f 17 bd 2b 25 14 3c
       0.03839158 -0.0025850346 -0.036941167 0.009042065
000360 cd 6f c7 bc 9d f3 6a 3b e3 5e cc bb 07 54 fe 3c
       -0.024345303 0.0035850771 -0.0062368973 0.031045927
000370 ba 91 52 3d fc a7 0e bd 49 fd 3f bd 2f fa 00 3c
       0.051408507 -0.03482817 -0.04687241 0.007872148
000380 83 c6 0a bd ee fa 9d ba 4e b1 0c bc 49 1d fd 3c
       -0.03388072 -0.0012052932 -0.008587195 0.030897753
000390 26 62 08 3c a5 cb 69 bd 9f 19 ab bc 94 91 2f bc
       0.008324182 -0.057078976 -0.02088624 -0.010715861
0003a0 c9 1d c6 bc 96 4c a0 ba b0 d9 14 bd a8 e5 8b 3c
       -0.024184125 -0.0012229856 -0.036340415 0.017077282
0003b0 d2 83 d1 3c 59 ab df bc be a7 e0 bc dc ed 5d 3c
       0.025575552 -0.027303385 -0.027423736 0.01354548
0003c0 0e 3e e6 bc ab 3b 6b 3c 5a 96 18 bd db d7 06 3d
       -0.028105762 0.014357488 -0.03725276 0.0329207
0003d0 45 60 b9 3b fb 9b 42 bd c6 ed a2 bc 24 e1 b1 3b
       0.005657228 -0.047512036 -0.01988877 0.00542845
0003e0 51 a5 00 bd 0d 03 02 3d f1 91 46 3c 3a 4f db 3c
       -0.031407658 0.03174119 0.012119756 0.026771177
0003f0 8a e8 e0 bb 1d f6 ad bd a9 d0 06 3a 34 3a 7c bc
       -0.0068636583 -0.08494208 0.0005142787 -0.015394736
