gain/classfy_weight/7483783171719641308/D_b3.npy (npy, 3008 bytes, 1 tensors)

array f4 [720]
00000000: ae30 803c 6f4b 2abc c602 33bd f1df f3b8
00000010: 8b0a 5abc 5289 8b3b b42c 81bd 68d8 a0bc
00000020: 9189 c0bb af34 3dbd f32f 1bbc 859e 0cbc
00000030: 9e26 dabc 1d04 0abd abad 16bd 670f e1bc
00000040: 58ea 493b 178e 993c c3ed 7f3c b890 9ebc
00000050: 354d 853c b78d b1bc bd82 2fbc 856b 8f3c
00000060: d035 d5bb 7d23 4bbb 0ff7 a0bb 72ae 2bbd
00000070: 0f23 4bbd 5e62 cfba e055 44bd 6ea4 e4bc
00000080: f936 95bb 9fc7 023d 4d52 3fbc 40eb afbc
00000090: dc02 73bb 4056 903c de54 273d c0da 093d
000000a0: 79d6 05bd 23e5 f7bc 380f 47bd 442c f6bc
000000b0: 4441 a138 0c3d 7cbc d89b 00bd cf9c e7bc
000000c0: 4173 55bc b4ab c6bc 651b f1bc f813 113c
000000d0: 4a74 21bd b118 203b 30c5 b73b af02 a4bc
000000e0: a77a 51bc 65f3 96ba 6342 e83c 5c2b 14bd
000000f0: ded0 ae3c ac3d 9bbb 9ac5 463a ccb0 38bc
00000100: 58ff 85bc d457 ccbc 6fa8 83bc 7fe1 68bd
00000110: 4a9c 083d 17a6 cabc bde3 f4bc 8268 dcba
00000120: 03e0 54bc 28ef 57bd d88f 813c 53ed 2fbd
00000130: ac7a 62ba f7f1 0abd f637 0fbd 497b 02bd
00000140: 3707 483d 4df7 5bbc 9a40 0fbc f386 913c
00000150: c2a3 25bc cfc9 16bd bcff dbb8 32cf 013b
00000160: 8adb 8abc 8fac 643c 316e 8dbd 5dbf 55bd
00000170: a56e 73bd a8fa 82bd 4ac3 71bd d714 dfbc
00000180: 4e10 21bd 8565 74bd 1209 72bc 1aee 99bb
00000190: ec94 1ebd 3fdd 0a3c 17df 84bd 5ad7 36bd
000001a0: d6ea 263b 87fc abbc 58c2 96bd 4b0b d5bb
000001b0: 31b5 cbbc e187 7dbc 906f 4bbd 78b0 03bd
000001c0: a23d 11bd f924 00bc eda9 a6bd 1159 0abd
000001d0: 6db9 5fbc 5dcb 17bd 6bc5 f6bc 7ae7 c8bc
000001e0: 815b 5fbd d783 2ebd ee91 07bd 8ff7 96bc
000001f0: 415a a9bd 2c29 863c 71e1 b2bc 1a48 c63c
00000200: 25a1 f5bc c5fd 25bc a105 c8bd b5e6 fa3c
00000210: 540c fdbb cf01 4b3c c025 13bc 5643 a23b
00000220: 2ae9 23bb 5a4d 19bd 9961 ae3c 4536 30bd
00000230: e7e5 ddbb 45f5 bd3b 5f63 8b3c d73c cc3c
00000240: a79c 5cbd cb60 66bd 6585 d83c d840 553c
00000250: 7a93 f63a 3033 db3b 98f2 90bc 4acc 16bc
00000260: 986c 9dbc d9e2 a9bc b1c5 14bc 3e33 96bc
00000270: 96dd 3abb 8cb7 4d3d 7fa5 06bd 0b83 d03c
00000280: bb86 9b3c 7621 363c 9fbb c8bb 77f7 02bd
00000290: 9868 60bd 35f9 8abc e5ad 90bc 2a9b 3a3b
000002a0: c710 5fbd dc70 d7bc c218 ecbc 9cd8 20bd
000002b0: 066e 593a ddeb 103d 71ba dabc 076d 753c
000002c0: 8f3c 753c 1440 303c 157e 123a c0f4 1ebd
000002d0: fe76 36bc bfc5 ffbc e86f 0c3d af08 c73c
000002e0: 4d1d d6bc 8b70 df3c 3323 ee3c 403f 77ba
000002f0: f769 03bd 0ff5 d23c 5f82 8fbd 4c6a 4bbd
00000300: 4bdf febc 9265 e9bc 8549 a13a e645 9d3c
00000310: 6413 193c 6da2 fb3c 7e9a 04bd bad0 8cbc
00000320: 4f64 e8bc a998 043c 40e5 47bd a11f e4bc
00000330: a9db e73b 4fa1 2b3d c23e c73c 29ac 8bbc
00000340: 2cc4 41bd 386b 4cbd 50c5 183a b3a7 463c
00000350: 95e0 113c 8a9e dd3b f226 69bd d73d 1dbd
00000360: 35c6 62bd 5e1e 32bb 0370 57bc 55d1 33bd
00000370: 4571 2cbc b3b6 4abd d615 8cbc 0b2a 1cbd
00000380: 343e 05bc c65b 17bd 20c7 7ebb 2eae f8bc
00000390: 2d09 c83c b65e c9bc fd7d 1ebd 968c 05bc
000003a0: b821 e2bc 518f 7abc a1c5 9cbc ff53 34bd
000003b0: 32c6 9fbc e8db a2bc 34f0 9cbd f07c 17bd
000003c0: 2681 60bb f33f 80bc 78c7 e3bc ec9b 65bc
000003d0: 6f97 13bd 5b6f dabc cf87 853b 0825 90bc
000003e0: 9307 b3bb 5311 04bc d7cd ce3c 1480 90bc
000003f0: 0eab 21bc 0e62 07bd d8f3 aa3c e0f1 47bd
0.015648212 -0.010393961 -0.043703817 -0.00011628855 -0.013308178 0.004258313 -0.063073546 -0.01963444
-0.005875774 -0.04619282 -0.009471881 -0.008582716 -0.026629742 -0.03369533 -0.036786716 -0.027473165
0.0030809846 0.018744512 0.015620652 -0.019356117 0.016272167 -0.02167402 -0.010712323 0.017507324
-0.006506659 -0.0030996494 -0.004912264 -0.04191441 -0.04959398 -0.0015822162 -0.04793346 -0.027910437
-0.0045536724 0.031928655 -0.011677337 -0.02147448 -0.0037080562 0.017619252 0.04085242 0.033655882
-0.03267524 -0.030260628 -0.048598498 -0.030050404 7.689235e-05 -0.015395414 -0.031398624 -0.028273014
-0.013027967 -0.024251796 -0.029432008 0.008854859 -0.039417543 0.002442878 0.0056082234 -0.02002081
-0.01278559 -0.0011516629 0.028351968 -0.036174163 0.02133983 -0.0047375765 0.00075825455 -0.01127262
-0.016357109 -0.024944223 -0.016071526 -0.056855675 0.033352174 -0.024737401 -0.02989375 -0.0016815814
-0.012992862 -0.05271831 0.01581566 -0.04295094 -0.00086394954 -0.033922162 -0.034965478 -0.031855855
0.048835006 -0.01342566 -0.00874343 0.017764544 -0.010109844 -0.036813553 -0.00010490368 0.0019807336
-0.016950388 0.013957157 -0.06905783 -0.05218445 -0.05943169 -0.06395465 -0.059024133 -0.027231617
-0.03932219 -0.05966713 -0.01477267 -0.0046975734 -0.03871624 0.008475601 -0.064878635 -0.04463897
0.0025469563 -0.020994438 -0.07361287 -0.0065015904 -0.024866672 -0.015474291 -0.04966694 -0.032150716
-0.03545917 -0.007821315 -0.081378795 -0.033776347 -0.013655049 -0.037059177 -0.030123433 -0.02452444
-0.054530624 -0.0426062 -0.033098154 -0.018428592 -0.08269168 0.016377054 -0.021836014 0.024204303
-0.029984066 -0.010131304 -0.09766699 0.030627588 -0.007722417 0.012390568 -0.008981168 0.0049518747
-0.0025010803 -0.037427284 0.021286773 -0.043020505 -0.0067717913 0.0057970607 0.017015157 0.024931354
-0.053860333 -0.056244653 0.026430795 0.013015948 0.0018812262 0.0066894516 -0.017693803 -0.00920398
-0.01921682 -0.020738052 -0.009080336 -0.018334981 -0.0028513423 0.050223872 -0.032872673 0.025453111
0.018985143 0.011116376 -0.006125882 -0.031974282 -0.05478725 -0.016964534 -0.017661044 0.0028473833
-0.05445936 -0.026298933 -0.0288204 -0.039269075 0.0008294288 0.035381187 -0.02670023 0.014979607
0.014968052 0.010757465 0.00055882457 -0.03880763 -0.011136768 -0.031222222 0.03428641 0.024296133
-0.026137019 0.027275344 0.029069519 -0.0009431727 -0.032083478 0.025751619 -0.07007288 -0.04966192
-0.031112334 -0.028490815 0.0012305236 0.01919837 0.009343002 0.0307171 -0.032373898 -0.017189372
-0.028368143 0.008093038 -0.048802614 -0.027847113 0.007075746 0.041901883 0.024321917 -0.017049866
-0.047306225 -0.04990694 0.00058277417 0.012124944 0.008903642 0.006763284 -0.056921907 -0.038389053
-0.055364806 -0.0027178745 -0.013149264 -0.043900806 -0.010525052 -0.04949064 -0.017100256 -0.038126033
-0.008132506 -0.036952756 -0.0038876012 -0.030356493 0.024418438 -0.024581295 -0.03869437 -0.008151194
-0.027603969 -0.015292958 -0.019137206 -0.044025417 -0.019503687 -0.01988025 -0.076630026 -0.036984384
-0.0034256666 -0.015655493 -0.027805075 -0.014014225 -0.03603309 -0.026664427 0.0040750275 -0.017595783
-0.0054635494 -0.008060771 0.025244636 -0.017639197 -0.009867443 -0.033052497 0.020868227 -0.048814654
