gain/classfy_weight/7483783171719641308/G_b2.npy (npy, 3008 bytes, 1 tensors)

array f4 [720]
-0.011714595 -0.01611988 -0.0075503364 -0.0064049806 -0.0062375525 0.007532105 -0.0071384893 0.006683655
-0.009723389 -0.0101969205 -0.006506413 -0.008320499 -0.0023635612 -0.00084499555 -0.023437813 -0.019098671
-0.021282746 -0.009910939 -0.0075080674 -0.009896617 -0.009289071 -0.011339184 -0.007649688 -0.006275425
0.0030804975 -0.007972918 -0.011804652 -0.007695064 0.021542907 -0.0076588825 -0.007294737 -0.009795641
-0.0134575935 0.003645769 -0.0059919353 -0.012652507 -0.020176556 -0.0060825795 -0.018785402 -0.0125407595
-0.012771483 -0.01020888 -0.0074979826 -0.0077034715 -0.009905712 -0.001379671 -0.006149136 -0.0065777283
-0.014510208 -0.010760149 -0.02431535 -0.012043794 -0.007052819 -0.009954908 -0.01802339 0.010466147
-0.01750858 -0.008198123 -0.009068526 -0.009449497 0.02672015 -0.018364115 -0.0024927997 -0.0095044
0.0068008965 -0.011393784 -0.012116741 -0.013085965 -0.0067175007 0.0012665461 -0.010440951 -0.006810867
-0.022885008 -0.014519908 0.0070031104 -0.009342602 -0.013482119 0.010166007 -0.008486402 0.0004883914
-0.011041449 -0.02542347 -0.011875574 -0.013763754 -0.008240541 -0.0077669453 -0.010262847 0.029407753
0.011064648 -0.0060491404 -0.013124201 -0.012105152 -0.00810668 -0.0075759385 0.013715078 -0.014740406
0.0063923188 0.0067236125 -0.01513094 -0.014793008 -0.005988252 -0.0011147457 -0.007930365 -0.012329335
-0.014114926 -0.0057200193 0.025981324 -0.010022654 -0.026789963 -0.007894637 -0.0018372808 -0.0074863434
-0.008213271 -0.0016065686 -0.01004492 -0.010301272 0.0067626536 -0.005080603 -0.007278703 -0.008591888
-0.006544188 -0.017637143 -0.008312003 -0.016789695 -0.0039711483 -0.006039917 -0.01546395 -0.0116567435
-0.007039937 -0.0077597494 -0.0076951887 -0.011190819 -0.006728655 -0.006335394 -0.009934944 -0.0141719775
-0.01049662 -0.0068122316 0.015713753 -0.012118243 0.007732295 -0.008555256 -0.02016441 -0.029090595
-0.0065702028 0.008013591 -0.013415746 0.012891951 -0.00599857 -0.011563964 -0.0077526686 -0.010445481
-0.002998786 0.0025726568 -0.017758593 -0.008922858 -0.008584679 -0.008107134 0.023539864 -0.011892058
-0.014133282 -0.0077710836 -0.013288782 0.0047701616 -0.009426946 -0.036415905 -0.009733105 -0.019753464
-0.023852214 0.012541357 -0.026746823 -0.0064798603 0.010069052 -0.021066839 -0.0034933162 0.0002586163
-0.030204738 -0.008713887 -0.013336956 0.038879056 0.008577218 -0.01405301 -0.014762764 -0.0068896916
-0.007810766 -0.0020063783 -0.011033668 0.004178073 0.030891094 -0.008147248 0.0134301465 0.0010695454
-0.010537755 -0.009514007 -0.018714653 0.0020497309 -0.0066070487 0.000851812 -0.0075399475 0.008485287
-0.007705687 -0.010781561 -0.010973568 -0.0025254667 -0.012575397 0.010533258 -0.04415817 -0.010563591
-0.012115315 -0.009717975 -0.010491826 0.0013627018 -0.008158589 -0.015707422 -0.022914432 0.028981948
-0.011749694 -0.027907116 -0.018888129 -0.022104641 -0.01518376 0.04434349 -0.008676825 -0.007011831
-0.017619465 -0.0035795025 -0.0075340187 -0.0068468214 0.016150257 -0.010897934 -0.009248164 0.0073935376
-0.008179428 -0.021860827 -0.0040719965 -0.00714972 -0.012196513 -0.008614837 0.011797942 -0.011643395
-0.01278032 -0.009431024 -0.0044638836 -0.021841267 -0.014036569 0.019538365 -0.008864384 -0.012202987
-0.00722472 -0.009469973 -0.0072044698 -0.014984247 -0.0060517923 -0.015712092 -4.4945184e-05 -0.0202703
00000000: 93ee 3fbc d70d 84bc d068 f7bb dfe0 d1bb
00000010: 6264 ccbb e0cf f63b fde9 e9bb 9002 db3b
00000020: d94e 1fbc fc10 27bc c033 d5bb b452 08bc
00000030: fae5 1abb b182 5dba a800 c0bc d174 9cbc
00000040: 2759 aebc 7e61 22bc 3c06 f6bb 6c25 22bc
00000050: 3031 18bc fcc7 39bc 3caa fabb 15a2 cdbb
00000060: 2ce2 493b d8a0 02bc 4d68 41bc e026 fcbb
00000070: c07a b03c 5df7 fabb b008 efbb e57d 20bc
00000080: 3d7d 5cbc dbed 6e3b ff57 c4bb 764c 4fbc
00000090: 4e49 a5bc 6050 c7bb d8e3 99bc c277 4dbc
000000a0: 7b3f 51bc 2543 27bc a3b1 f5bb 676d fcbb
000000b0: 914b 22bc 14d6 b4ba b17e c9bb fc89 d7bb
000000c0: 39bc 6dbc 564b 30bc fc30 c7bc 5553 45bc
000000d0: 551b e7bb e919 23bc caa5 93bc 347a 2b3c
000000e0: 276e 8fbc 6c51 06bc 2894 14bc 10d2 1abc
000000f0: 37e4 da3c 5770 96bc 3d5e 23bb 58b8 1bbc
00000100: 0eda de3b feac 3abc 4c85 46bc 8466 56bc
00000110: 7b1e dcbb 3c02 a63a 8610 2bbc b22d dfbb
00000120: 5779 bbbc e9e4 6dbc 597a e53b b711 19bc
00000130: 1be4 5cbc 538f 263c 8d0a 0bbc 6407 003a
00000140: 32e7 34bc e244 d0bc c491 42bc 5e81 61bc
00000150: 5603 07bc dc81 febb 8025 28bc 87e8 f03c
00000160: 7f48 353c de37 c6bb e406 57bc b054 46bc
00000170: e1d1 04bc 943f f8bb 35b5 603c be81 71bc
00000180: a876 d13b c051 dc3b c3e7 77bc 5f5e 72bc
00000190: 1939 c4bb a91c 92ba 5dee 01bc fb00 4abc
000001a0: 4a42 67bc 006f bbbb c9d6 d43c 0f36 24bc
000001b0: a076 dbbc 8258 01bc ead0 f0ba 0050 f5bb
000001c0: f590 06bc 7f93 d2ba 7393 24bc abc6 28bc
000001d0: 4099 dd3b 307b a6bb 3082 eebb fdc4 0cbc
000001e0: a170 d6bb c57b 90bc 112f 08bc 8b8a 89bc
000001f0: 6820 82bb 7fea c5bb 825c 7dbc edfb 3ebc
00000200: 46af e6bb 7f45 febb ec27 fcbb b259 37bc
00000210: 0d7c dcbb 2399 cfbb 2dc6 22bc 9531 68bc
00000220: 04fa 2bbc 2439 dfbb 21ba 803c 988b 46bc
00000230: 315f fd3b 582b 0cbc d52f a5bc 664f eebc
00000240: db4a d7bb 704b 033c b8cd 5bbc c338 533c
00000250: a78f c4bb c876 3dbc 190a febb 8623 2bbc
00000260: 4887 44bb 059a 283b 787a 91bc 2e31 12bc
00000270: c1a6 0cbc c9d3 04bc acd6 c03c e8d6 42bc
00000280: 488f 67bc 93a4 febb 31b9 59bc 044f 9c3b
00000290: 7a73 1abc d828 15bd 9a77 1fbc 04d2 a1bc
000002a0: b865 c3bc 447a 4d3c 271c dbbc 0255 d4bb
000002b0: aaf8 243c 5d94 acbc 1ff0 64bb e496 8739
000002c0: ed6f f7bc b1c4 0ebc 3f83 5abc a53f 1f3d
000002d0: 7687 0c3c 993e 66bc 85df 71bc ecc2 e1bb
000002e0: 74f1 ffbb 717d 03bb 8fc6 34bc 37e8 883b
000002f0: 520f fd3c 097c 05bc 1e0a 5c3c fd2f 8c3a
00000300: 8ca6 2cbc a3e0 1bbc 794f 99bc c754 063b
00000310: f17f d8bb 234c 5f3a aa11 f7bb e005 0b3c
00000320: fd7f fcbb 25a5 30bc 7bca 33bc 4d82 25bb
00000330: 0a09 4ebc b093 2c3c 33df 34bd e912 2dbc
00000340: 507f 46bc 2438 1fbc e8e5 2bbc af9c b23a
00000350: 9aab 05bc daac 80bc 0cb7 bbbc 8d6b ed3c
00000360: ca81 40bc 779d e4bc 47bb 9abc cb14 b5bc
00000370: 4ec5 78bc 85a1 353d 3e29 0ebc 80c3 e5bb
00000380: b256 90bc 1696 6abb eedf f6bb 4d5b e0bb
00000390: 8b4d 843c 408d 32bc 9c85 17bc 7d45 f23b
000003a0: 0203 06bc 7a15 b3bc 626e 85bb 3348 eabb
000003b0: e2d3 47bc 3f25 0dbc 284c 413c f0c3 3ebc
000003c0: 8c64 51bc 9584 1abc c545 92bb 75ec b2bc
000003d0: a3f9 65bc ec0e a03c ec3b 11bc 0aef 47bc
000003e0: 58bd ecbb f227 1bbc 7913 ecbb 7d80 75bc
000003f0: 1d4e c6bb a5b6 80bc 8683 3cb8 e60d a6bc
