gain/classfy_weight/7483783171719641308/G_b3.npy (npy, 3008 bytes, 1 tensors)

array f4 [720]
00000000: 10c9 d1bb 88d2 923c fd86 92bb b1fa 45bc
00000010: 5b80 33bd ca91 933c a1c1 1bbd 1713 e3b9
00000020: 2288 153b 4d27 68bc 44f0 49bc 2ca5 4cba
00000030: 859b cfbc b0dd 3abb 7bc3 bf3b 6476 86bc
00000040: d019 78bc 4f23 71bc 89a4 df3b 9500 d2bc
00000050: c6b9 e3bb 25c4 c23c 79c8 d9bc 19d2 7eba
00000060: 1eb6 72bc dd52 c0bb c1e4 31bd 0361 423c
00000070: 4749 e0bc b1a8 59bc 86c3 f8bb 5e16 9a3b
00000080: 4942 a7bc 66a7 643a c875 cc3b 2e30 94bc
00000090: 685c edbc 7426 d3bc 4ba7 1abd 7826 873c
000000a0: 2743 a93b 8e37 e838 71e3 3fbc b6cb f8bb
000000b0: 19e4 aabc 129a 663c 183b 8ebc aea5 d8bc
000000c0: cbcc 3fbd ae0e a6bc 6aa5 0fbb 1141 4cba
000000d0: a8fc 76bb 0152 d33b 61e5 48bb 4c48 0e3c
000000e0: b16c 1fbc e0fc 02bd 723d 1ebd a12d 033c
000000f0: e064 983c c59d 96bc 3856 7cbc e56b 83bc
00000100: 7aaa 9fbc 6643 d4bc b63f c7bc d1ac afbc
00000110: 2c9a f0bc 3b43 99bc 8564 bd3a ffec 1dbc
00000120: b283 8fbc 2ce9 3fbc 5e6a 20bc 3299 83bc
00000130: 7e39 a9bc 4106 0fbc 322d cfbc 1b5e b4bc
00000140: a9ba 5abb c5bd 53bc cba3 d8bc e98d b0bc
00000150: 649f 823c c5e6 0b3c cc91 2bbd 8302 66bb
00000160: 823e fcbc 3114 2ebc 65a7 43bb 1bb9 dbbb
00000170: 6d25 e4bc 03eb 8ebc 1318 ccbb ce23 91bc
00000180: 0766 02bd f086 9ebc e194 2abd 7735 63bc
00000190: 5b0d c4bb e919 01bc fefc 6cbc a227 2abd
000001a0: e1d9 9abb 0389 37bc 4d7a 6cbc c181 0abc
000001b0: 9b40 26bd 25a9 7bbc 04a6 ed3b 773d 963b
000001c0: 1a9e a6bc fb1b 26bc a5d5 1a3b 5492 37bc
000001d0: 594c 0bbd 963e 79bc d25f 0ebd a53b e53c
000001e0: 6092 7a3c 2816 8f3c ef8d 28bd 4174 97bb
000001f0: 8148 b93a b41b d6bc 0562 60bc 4fb6 073a
00000200: 2924 a1bc 7e9d 4bbc f878 c5b9 bbe8 523c
00000210: d831 91bb 544a 20bc 63ce 40bc bacc 0bbd
00000220: 7a96 32bc cfc6 823c 6493 25bd 0e0a 3d3d
00000230: 6f8d 5e3c 6789 0c3c 44d4 a1bc fbe6 1fbd
00000240: b90e a7bc 7fcf 41bc 98ea d0bc 6317 b33b
00000250: 62c2 cfbc c853 86bc c0aa 843c 245f 1d3c
00000260: 7c28 eebc b4d1 0ebd cc18 17bc 2dec 183c
00000270: 395e b8bc 7109 043c 67c4 1cbc e451 c7bb
00000280: a5c7 65ba c09c 60bc 18f7 813b a277 f7bc
00000290: 7b57 32bc 2183 6cbc 448b d5bb 3ae6 833b
000002a0: 473b 60bc 3d05 9ebb c69e 90bc b94c 21bc
000002b0: b298 85bc cfd9 21bd 736b 0dbc 5b06 c1bc
000002c0: af1c 2cbd 6b6c b2bc dd74 8abc 5442 a9bc
000002d0: 362b 453b b4f1 0cbc 3063 413c e7d4 b5bc
000002e0: 2b9b 0fbc 92cd 38bc 66e8 16bd c8f4 babb
000002f0: c630 62bc 964c 02bd 84c0 803c dfa6 f2bb
00000300: fbf4 88bb 211a 5cbd fe2a 2e3b b942 83bc
00000310: 4074 2cbc d291 aabb a035 713c 7c52 b0bc
00000320: 887a 3bbb 23c1 6a3c 168f 35bc de2e 34bd
00000330: ea61 cc3a 21bc 20bc d128 a3bc f284 09bc
00000340: 4d86 acbc 35ad 9f3a 1d7d 43bb 1ab1 4bbc
00000350: 5d2f 05bc d4b0 01bd 7975 fe3c 8b34 f4bc
00000360: 6712 0cbd 8dfc 313c 98dd b8bb b7c4 753b
00000370: b996 0ebc 1ce4 92bc 9d1a 5dbc 604d 6cbc
00000380: 9247 60bc a1f9 d1bc 39ce 83bc 6b88 a03a
00000390: e82d 21bc 888b 53bd c018 75bb a3d9 a2bb
000003a0: 1eab 65bc b257 f9bc 7b80 f53b 071b ebbc
000003b0: b94f 06bd 250d 203a 237a 01bd 3d99 a8ba
000003c0: beb7 203c 197f dbbb 7f96 a139 3357 aebc
000003d0: 7aa0 153b c78d 5fbc add8 0fbd bc59 243b
000003e0: 5e46 15bd 3d63 59bc b6f3 3c3c 280b 313c
000003f0: b852 493c a95a f4bc 579c 03bd 70fe dbbc
-0.0064021423 0.017922655 -0.0044716583 -0.012083695 -0.04382358 0.018013854 -0.038026456 -0.00043311037
0.0022816737 -0.014169526 -0.01232535 -0.0007806595 -0.025342712 -0.0028513484 0.0058521605 -0.016413875
-0.015142873 -0.014717891 0.006825034 -0.025635043 -0.006949636 0.02377517 -0.02658485 -0.0009720638
-0.014813928 -0.005869253 -0.043431047 0.01186395 -0.027378691 -0.013284848 -0.0075916676 0.0047023734
-0.02041735 0.0008722454 0.0062396266 -0.01808938 -0.028974727 -0.025775172 -0.0377572 0.016497836
0.005165476 0.0001107297 -0.011711941 -0.0075926436 -0.020860719 0.014074819 -0.017362162 -0.02644619
-0.046826165 -0.020270672 -0.0021918663 -0.0007791678 -0.0037687216 0.0064489846 -0.0030654299 0.008684229
-0.009730504 -0.03197944 -0.038632818 0.008006484 0.018602788 -0.018385777 -0.0154014155 -0.016042659
-0.01949047 -0.025911044 -0.024322372 -0.02144471 -0.02937039 -0.018708816 0.0014449513 -0.009639024
-0.017518852 -0.011713307 -0.009790985 -0.01606426 -0.020657297 -0.008729518 -0.025290105 -0.02201753
-0.0033375418 -0.012923663 -0.02644529 -0.021552043 0.015945144 0.008538906 -0.04188709 -0.0035096712
-0.030791525 -0.010624931 -0.0029854414 -0.006705416 -0.027849877 -0.017446047 -0.006228456 -0.017717268
-0.031835582 -0.019351453 -0.04164589 -0.0138677275 -0.0059830374 -0.007879713 -0.014464615 -0.041541703
-0.00472568 -0.0112021 -0.014433456 -0.008453787 -0.040588956 -0.015360151 0.0072524566 0.004584964
-0.02033906 -0.010138507 0.0023625877 -0.011204321 -0.034008358 -0.015212676 -0.03475935 0.027982542
0.015293688 0.01746662 -0.041150983 -0.004622013 0.0014135988 -0.026136257 -0.013695245 0.00051770074
-0.019670563 -0.012427686 -0.00037664897 0.01287287 -0.0044309907 -0.009783346 -0.011767956 -0.03413079
-0.010900134 0.01596394 -0.040423766 0.046152167 0.013583525 0.008577681 -0.019754536 -0.03903864
-0.020392762 -0.011829256 -0.025502488 0.0054654344 -0.025361244 -0.016397372 0.016194701 0.009605203
-0.029072039 -0.034867957 -0.009222221 0.009333652 -0.022505866 0.008058892 -0.00956831 -0.00608276
-0.0008765406 -0.013709247 0.0039662234 -0.030208413 -0.010885115 -0.01443556 -0.006516846 0.004025248
-0.013686008 -0.004822402 -0.017653834 -0.009844952 -0.016308162 -0.03951436 -0.008631575 -0.0235626
-0.042019542 -0.021780213 -0.016901428 -0.02066151 0.003008557 -0.008602548 0.011803433 -0.022196246
-0.008765022 -0.0112794805 -0.036842726 -0.0057054497 -0.013805574 -0.03181132 0.015716799 -0.0074051465
-0.0041795946 -0.053735856 0.0026575918 -0.016023027 -0.010525763 -0.0052053714 0.014722258 -0.021523707
-0.002860697 0.014328274 -0.011081478 -0.04399001 0.0015593146 -0.009810478 -0.019916924 -0.008393513
-0.021060133 0.0012182357 -0.0029829212 -0.012432361 -0.008128968 -0.031662777 0.031061875 -0.02981021
-0.034197237 0.010863435 -0.0056416504 0.0037501284 -0.008702927 -0.017931037 -0.013495115 -0.0144227445
-0.013688939 -0.025631728 -0.016089546 0.0012247687 -0.009837605 -0.05164674 -0.0037398785 -0.004969792
-0.014017848 -0.030437324 0.0074921227 -0.028699411 -0.032790873 0.00061054743 -0.03161062 -0.0012863051
0.009809433 -0.006698501 0.0003082044 -0.021281814 0.0022831247 -0.013644642 -0.035118748 0.00250779
-0.03644406 -0.013268289 0.011532715 0.0108058825 0.012287788 -0.029828386 -0.03213152 -0.026854724
