gain/classfy_weight/2753029681805320370/G_b3.npy (npy, 2144 bytes, 1 tensors)

array f4 [504]
00000000: 73f7 27bd 3cd4 1cba f46b 90ba 0c40 f8bc
00000010: 470d 1dbd ee9a 38bb f2a4 8abb 4f39 f9bc
00000020: 7dd7 6e3b 87c0 ec3c 5fd6 103c b8a7 75bd
00000030: b45c 5c3c eeaf a2bd c12c 61bd 4ccb 013d
00000040: 80ae a93c 63c5 c2bb cf30 9bbd e1ca d4bb
00000050: 283e dbbb 14ce 6cbd 1342 dcbc 54b4 1b3c
00000060: 63c0 72bc 865e 47bd d5a5 5cbd ad6f 6abd
00000070: 50f6 15bd b362 8fbc 653e dc3c 1a78 e2bb
00000080: e16a 2abd 404c 8abd 9c3a b7bc 6918 0cbd
00000090: 043f cebc 3068 293b 630f 2cbb f0f5 4bbd
000000a0: 8035 6ebd 8598 5bbd c665 44bd 51a2 4dbd
000000b0: d31a cb3c ea13 f2bc a02b 8fbc d750 efbc
000000c0: 1b46 da3c e99e b0bc dfd1 e1bc 0fad 813c
000000d0: eaaf 3c3c 188f afbb 469d 67bd 6f7c 973b
000000e0: b108 e2bc ffc0 273c dc9a 0a3c e698 21bd
000000f0: 699d 0ebb e376 65bd 252e c1bc f9d9 eebc
00000100: 38ee cb3c 471f 6e3c fc0f 91bc e655 92bc
00000110: 0c0e 4fbd 8faa 413b 2ab4 f6bc 40f4 8e3c
00000120: b9be 87bc f3ee 8abb 27c6 99bc 38a3 3ebd
00000130: 0141 a13c acee 0cbd bfc2 833b ce33 cdb9
00000140: 685a c63a b8a1 eabb 32ef 91bd e8b2 01bc
00000150: 7a72 53bd 3079 92bb e117 52bc fded 703c
00000160: 3eb3 dabc 930a 35bd 881f d9bc 480f 3ebd
00000170: 66ae 18bc 45ff eebc 04f1 943c 2154 8dbc
00000180: 73dc 2bbd eb7f 6fbd 79fd 03bd 7a8e b9bc
00000190: cbcc 09bc e359 173d 9911 3dbd b978 95bd
000001a0: f560 eebc 18a1 36bd 5556 43bc 7755 afbc
000001b0: fa0e 2c3d c783 63bd 0b5a e7bc efc4 183d
000001c0: ab89 50bd 1282 823b e119 b3bc 6762 1f3c
000001d0: 6b76 7dbd ad52 6dbd e723 f13c dbb1 1bbd
000001e0: 92c8 093b 6737 43bc ec6c c83c de66 38bd
000001f0: ebc2 6fbd 3403 36bb eaf3 97bd eafc edbc
00000200: 2fa9 51bc a585 2b3d 7567 68bd e68d 0fbd
00000210: bad6 ad3a f783 67bd 5b54 babc cdcf 0a3c
00000220: e66d eb3c 8ce1 34bd 3370 09bd 0b1a 5cbd
00000230: e557 3bbd 2173 ddbc df7c 38bb 81b1 ac39
00000240: 067d 65bd f5df 38bd b4da 37bd db4e 6abd
00000250: 5e29 30bc bcb9 d43c 8814 f33b 2637 f8bc
00000260: b751 36bd 4962 f7bc b900 94bd 1357 f13b
00000270: 901e b33c 70f4 923c 8ade 4abd f870 2ebd
00000280: 120a 7bbb a909 5fbd 569f 913b f06f 753c
00000290: 97e0 57ba 7dcf 78bd 7c3f 14bc 2ebe 85bd
000002a0: bf66 0cbd c597 22bb c0df fb3c fca1 f5bb
000002b0: be34 87bd 0f50 2dbb 2df9 443c 4499 58bd
000002c0: 74ed 173a d13d 9a3c ed81 a83c f9da 92bd
000002d0: 91c8 9b3c 8daa 63bd a239 8dbd 4c3c ee3b
000002e0: c8a7 9d3c 5250 153d 0337 05bd 7dd4 f6bc
000002f0: d35f ccbc 42d1 41bd 4660 263d aef3 c63c
00000300: d516 553d f2ee 3fbd daa8 6fbc c1b9 07bd
00000310: d5eb 45bd dc82 d23b f05d 5c3c 3413 253d
00000320: aeaf 1fbd 98a7 a1bc 99f1 00bd 49d5 3cbd
00000330: 7596 78bb 7046 a53c f312 4a3d 11cc 5bbc
00000340: f68d 4dbd 4333 7bbc 4de9 5ebd 65b8 0abb
00000350: 3c7b 9e3c e1fd b33c 8755 5fbb 190f 51bd
00000360: be2f deba 7c48 2ebd 901c 3dba 7d3e 86ba
00000370: 78be 9d3c 1903 d2bc 185a 13bd bf8f 19bc
00000380: c387 21bd f351 f43c 5b35 c6bc 5bf9 c6ba
00000390: bf1b 3fbd 248e 42bc 4d69 44ba c262 e1bc
000003a0: 2fa5 473d 4231 3c3c ab6d 293d deb0 a4bc
000003b0: 475a 40bd 05cb 9ebc aeb7 08bd b39f 183d
000003c0: a412 1c3d 7845 f13c f7ba 27bd 9fa4 3dbd
000003d0: 97fd 11bd 6ccb 3fbd d98b c83c 1831 373b
000003e0: 3ab0 233d 30e6 babc 2ec4 edbc 65df 00bc
000003f0: 1e7f 2abd b8db 87bc e642 33bb f9ac 113d
-0.04100747 -0.0005982553 -0.0011018501 -0.030303977 -0.03834274 -0.0028168517 -0.004231089 -0.030422835
0.003644436 0.028900398 0.008840173 -0.059974402 0.0134498365 -0.07943712 -0.05497432 0.03168802
0.02071309 -0.0059439405 -0.07577669 -0.0064939116 -0.006690759 -0.05781372 -0.026886975 0.009503443
-0.014816376 -0.04867413 -0.053869087 -0.05723541 -0.036611855 -0.017503118 0.02688522 -0.00691129
-0.041605834 -0.06752825 -0.022366814 -0.034202967 -0.025176533 0.0025849454 -0.0026254288 -0.04979509
-0.05815649 -0.05361225 -0.04794862 -0.050203625 0.024793064 -0.029550511 -0.017476857 -0.029213352
0.026644757 -0.02156015 -0.027565895 0.015829591 0.011516551 -0.0053576343 -0.056546472 0.004622988
-0.027592035 0.010238885 0.008459773 -0.039452456 -0.0021761304 -0.056021582 -0.023581574 -0.029156672
0.024893865 0.014533824 -0.017707817 -0.017863225 -0.050550506 0.0029551124 -0.030115206 0.017450452
-0.016570436 -0.0042399107 -0.018771244 -0.046542376 0.019684317 -0.034407303 0.0040210183 -0.00039139244
0.0015133144 -0.0071603917 -0.07125701 -0.00791619 -0.051622845 -0.004470013 -0.012823076 0.014705178
-0.026696797 -0.044199537 -0.026504293 -0.046401292 -0.009318924 -0.029174456 0.018181331 -0.01725203
-0.041958284 -0.0584716 -0.032224152 -0.022650946 -0.008410643 0.036950957 -0.04615936 -0.07298417
-0.029098967 -0.044587225 -0.011922439 -0.021403058 0.04200647 -0.055545595 -0.028241178 0.037297186
-0.05091254 0.0039827907 -0.021862926 0.009728051 -0.06188051 -0.057940174 0.029436065 -0.038011413
0.002102409 -0.011915064 0.024466 -0.045019977 -0.058535498 -0.0027772905 -0.0741957 -0.029051263
-0.012796684 0.0418755 -0.05673929 -0.035047434 0.0013262846 -0.056522336 -0.022745302 0.008472395
0.028738927 -0.04416041 -0.033554267 -0.053735774 -0.04573812 -0.027032437 -0.00281506 0.00032938647
-0.056027435 -0.045135457 -0.044886306 -0.05720411 -0.01075205 0.025967471 0.007418219 -0.030299734
-0.044511523 -0.030198233 -0.072267 0.0073651164 0.02186516 0.017938823 -0.049528636 -0.042588204
-0.0038305563 -0.054452572 0.004444043 0.014980301 -0.00082350656 -0.06074475 -0.009048339 -0.065304145
-0.034277674 -0.00248097 0.03074634 -0.0074961167 -0.06601857 -0.0026445424 0.012022299 -0.05288054
0.0005795576 0.018828304 0.020569766 -0.07170672 0.019016536 -0.05558257 -0.06895758 0.0072703715
0.019245043 0.036453553 -0.032523166 -0.03013062 -0.024948036 -0.047318704 0.040619157 0.024286117
0.052023727 -0.046858735 -0.01462766 -0.033136133 -0.04832061 0.006424291 0.013450131 0.040301517
-0.0389859 -0.019733235 -0.031480405 -0.046101842 -0.0037931476 0.020175189 0.049334478 -0.013415352
-0.050184213 -0.015332046 -0.05442171 -0.0021167037 0.019345872 0.021971645 -0.0034078078 -0.05103979
-0.0016951484 -0.042549595 -0.0007214034 -0.0010242012 0.019255862 -0.025636243 -0.035974592 -0.009372651
-0.039436113 0.029824233 -0.024195364 -0.0015180515 -0.04665732 -0.011874709 -0.00074924977 -0.027512912
0.048741516 0.011486353 0.041364353 -0.020103868 -0.046961095 -0.019383917 -0.033378296 0.037261676
0.038103715 0.02945207 -0.040949788 -0.046299573 -0.035642233 -0.046824858 0.024480747 0.0027952846
0.039962985 -0.02281484 -0.02902421 -0.007865761 -0.041625135 -0.016584262 -0.0027353107 0.03556535
