gain/classfy_weight/2124000557585122617/G_b1.npy (npy, 3008 bytes, 1 tensors)

array f4 [720]
-0.0072586103 -0.010681515 -0.01814836 -0.011710761 -0.0082819965 -0.0071968697 -0.0066543934 -0.0102833435
0.007908902 0.019375429 -0.016267184 -0.0077217305 -0.0086841 -0.010029091 -0.019004926 -0.007144998
-0.014111046 -0.006567836 -0.007708105 -0.0045837266 -0.0043422417 -0.007484479 -0.004639012 -0.020754531
-0.013311297 -0.0069152736 -0.0073116035 -0.006005435 -0.007349535 -0.006314452 -0.0065041287 0.039965887
-0.010695134 -0.0069313752 -0.023484895 -0.0055909683 -0.012059529 -0.0010364626 -0.0068856636 -0.006837043
-0.018652366 -0.009220926 0.031647805 -0.012851066 -0.011871623 -0.008964706 -0.008072566 -0.008536231
0.026395194 -0.006373569 0.0021939059 -0.001492166 0.030995073 -0.002446374 -0.010357319 -0.012618641
-0.0077916672 -0.013316281 0.0033832549 -0.0065946234 -0.006214792 -0.0064778198 -0.009480209 -0.0056365435
-0.00791863 0.020262813 -0.0061420673 -0.007949439 -0.027708357 -0.011142818 -0.012312869 -0.017452247
0.011985828 0.021431843 -0.024974823 -0.0019250368 0.00061556185 -0.006585682 -0.008236115 0.010760192
0.013886256 -0.0065775653 -0.006004399 -0.0067435373 -0.007888287 0.015073091 -0.004581082 -0.014499675
-0.0072050085 -0.0067777876 0.035834707 -0.014974272 0.020736324 -0.01276519 -0.009867292 -0.0071351803
-0.010511234 -0.0026774525 -0.0064781266 -0.0040578838 -0.018744988 -0.000344812 -0.003809112 -0.019181706
-0.005612844 -0.008661442 -0.015718866 -0.008854606 0.02296957 -0.0063562007 -0.0049991286 0.021720624
-0.006229732 -0.0068429145 -0.0061503686 -0.0098018 -0.0091774305 -0.007181897 -0.019061195 -0.016156266
-0.00891518 -0.008129511 -0.018091327 -0.005665175 -0.008266143 0.0073690154 -0.0073127034 -0.0032177712
-0.007751809 -0.014517443 -0.0030667426 -0.018127214 0.036197476 -0.0071615116 -0.032434706 -0.0065720747
-0.017714327 0.0053940904 -0.008104395 -0.0069661373 -0.00064984086 -0.005904689 0.031816777 -0.010049848
-0.008908737 -0.0064934827 -0.00695415 0.0025814169 -0.007412217 -0.010849748 0.0020376577 -0.010998259
-0.0039119264 -0.007558401 -0.006980444 -0.008061888 -0.010119305 -0.011902787 0.029797098 -0.01472618
-0.011635991 -0.009564546 -0.00032399248 0.007038757 -0.0031661913 -0.006572233 -0.00616436 -0.0036806804
-0.013170342 -0.006079557 0.0059524598 -0.011463852 -0.0066172546 -0.009125782 -0.012179793 -0.0054983743
-0.0061822557 -0.009123741 -0.017745301 -0.0066564223 -0.0060515283 -0.007963868 -0.00452077 -0.00701222
-0.009962748 -0.009177411 -0.0061147497 -0.018755672 -0.013184952 -0.0069246455 0.011263854 -0.007430523
0.007220705 0.006890159 -0.009500736 -0.01835443 -0.007043381 -0.012105675 0.00824019 -0.01267784
-0.01929933 -0.0047421115 0.005990805 0.0022922244 -0.021709515 -0.0049227728 0.029711735 -0.008471943
-0.0093804225 -0.01433781 -0.009860617 -0.0061361818 0.002048035 -0.01150632 0.0036986321 -0.019633053
-0.006797154 0.0052957055 0.027660912 -0.011612742 -0.008448695 -0.008072659 -0.006712143 -0.0073748655
-0.006744499 0.022904959 -0.008187239 0.016330853 -0.0064283703 0.004469795 -0.0073696915 -0.013188866
-0.00977828 -0.0063774725 -0.0059753056 -0.008047094 0.020431023 0.014219679 -0.008037212 -0.0088591445
0.027836872 -0.0064334925 -0.0077959877 0.0014326088 0.008729036 -0.0081466315 -0.0025019369 -0.0070022084
-0.008020009 -0.0065874252 -0.014275922 -0.014571658 -0.0074063134 -0.006469432 -0.007096458 -0.008197097
00000000: a3d9 edbb 8501 2fbc dfab 94bc 7ede 3fbc
00000010: 36b1 07bc b8d3 ebbb 190d dabb 787b 28bc
00000020: 5794 013c 38b9 9e3c c242 85bc 9206 fdbb
00000030: c147 0ebc 0e51 24bc 38b0 9bbc 9620 eabb
00000040: 0432 67bc 0037 d7bb 4594 fcbb 1633 96bb
00000050: 5d49 8ebb 5c40 f5bb da02 98bb 6805 aabc
00000060: a017 5abc 8599 e2bb 2d96 efbb 3dc9 c4bb
00000070: 5ed4 f0bb 76e9 cebb 9620 d5bb 45b3 233d
00000080: a53a 2fbc 9720 e3bb 6563 c0bc 7134 b7bb
00000090: 5595 45bc ead9 87ba 22a1 e1bb 4609 e0bb
000000a0: d9cc 98bc 5e13 17bc 21a1 013d 478d 52bc
000000b0: 3281 42bc b4e0 12bc cc42 04bc 8cdb 0bbc
000000c0: bc3a d83c 5fd9 d0bb a2c7 0f3b c894 c3ba
000000d0: 61e9 fd3c 5853 20bb bfb1 29bc 6bbe 4ebc
000000e0: 3e51 ffbb 882c 5abc 99b9 5d3b b617 d8bb
000000f0: 74a5 cbbb e443 d4bb e152 1bbc c1b2 b8bb
00000100: 24bd 01bc 33fe a53c 6543 c9bb 5d3e 02bc
00000110: a3fc e2bc 5e90 36bc eabb 49bc 04f8 8ebc
00000120: 3560 443c d591 af3c 0098 ccbc 8451 fcba
00000130: a85d 213a b4cc d7bb c5f0 06bc 844b 303c
00000140: 2e83 633c 9e88 d7bb 8dc0 c4bb e4f8 dcbb
00000150: e03d 01bc 20f5 763c e71c 96bb 0b90 6dbc
00000160: fe17 ecbb 3418 debb 6ac7 123d a656 75bc
00000170: 39df a93c 1625 51bc 6caa 21bc 3bce e9bb
00000180: 5037 2cbc 3378 2fbb 7746 d4bb fff7 84bb
00000190: 178f 99bc e2c7 b4b9 4ba2 79bb f422 9dbc
000001a0: f3eb b7bb b9e8 0dbc dac4 80bc e912 11bc
000001b0: ae2a bc3c ad47 d0bb bbcf a3bb 73ef b13c
000001c0: c822 ccbb 873a e0bb 0889 c9bb bb97 20bc
000001d0: ef5c 16bc 1e56 ebbb 3926 9cbc 255a 84bc
000001e0: fa10 12bc a431 05bc 4334 94bc efa2 b9bb
000001f0: b76e 07bc c877 f13b 679f efbb 3ee1 52bb
00000200: e302 febb 92da 6dbc 67fb 48bb 867f 94bc
00000210: ce43 143d 1dab eabb 41da 04bd 8f5a d7bb
00000220: a31d 91bc e9c0 b03b 4cc8 04bc 3244 e4bb
00000230: 155a 2aba 1f7c c1bb 4f52 023d 1ea8 24bc
00000240: f4f5 11bc 48c7 d4bb a3df e3bb fd2c 293b
00000250: 2fe2 f2bb 24c3 31bc 398a 053b 0b32 34bc
00000260: 9e2f 80bb 77ac f7bb 35bc e4bb 0216 04bc
00000270: 71cb 25bc e803 43bc 0b19 f43c 1346 71bc
00000280: e2a4 3ebc 9db4 1cbc 89dd a9b9 60a5 e63b
00000290: e07f 4fbb e35b d7bb 66fe c9bb 9237 71bb
000002a0: 6bc8 57bc 0537 c7bb da0c c33b e1d2 3bbc
000002b0: 8ed5 d8bb 4e84 15bc c18d 47bc b52b b4bb
000002c0: 8594 cabb be7b 15bc 985e 91bc 1e1e dabb
000002d0: e64b c6bb e27a 02bc f822 94bb c4c6 e5bb
000002e0: cb3a 23bc da5c 16bc 3d5e c8bb 7fa5 99bc
000002f0: b205 58bc 23e8 e2bb 078c 383c bf7b f3bb
00000300: aa9b ec3b d8c6 e13b faa8 1bbc 085c 96bc
00000310: 2acc e6bb e256 46bc dd01 073c b7b6 4fbc
00000320: a119 9ebc b763 9bbb 844e c43b 2539 163b
00000330: 27d8 b1bc 364f a1bb 0666 f33c e8cd 0abc
00000340: 58b0 19bc 22e9 6abc 6d8e 21bc 0612 c9bb
00000350: 5338 063b 0185 3cbc c064 723b 7fd5 a0bc
00000360: a9ba debb 9987 ad3b 2399 e23c 5f43 3ebc
00000370: 656c 0abc 3043 04bc 89f1 dbbb dba8 f1bb
00000380: f500 ddbb 2ea3 bb3c c523 06bc 48c8 853c
00000390: 14a5 d2bb 5c77 923b 747d f1bb 1d16 58bc
000003a0: 1435 20bc 1efa d0bb 7fcc c3bb f5d7 03bc
000003b0: f65e a73c a8f9 683c 83ae 03bc f225 11bc
000003c0: 270a e43c 0cd0 d2bb 7c75 ffbb 60c6 bb3a
000003d0: 3b04 0f3c 7379 05bc 89f7 23bb c872 e5bb
000003e0: 5b66 03bc 54db d7bb 8fe5 69bc f7bd 6ebc
000003f0: a9b0 f2bb 87fd d3bb 6889 e8bb 1e4d 06bc
