gain/classfy_weight/2317597176753900225/G_b3.npy (npy, 2144 bytes, 1 tensors)

array f4 [504]
00000000: dcb5 9bbc 9462 7fbc c0ed 0b3d 2362 8ebc
00000010: 663b 80bd 1407 94bc ee62 693d 406e 56bc
00000020: eccf 933c 08b7 c13c c7ca 9ebc ec0d 1bbd
00000030: 34e8 9bbc b471 9f3c 2d4d d6bb 35e0 0e3d
00000040: 9bfc 093d fbab 58bc 7b9c 30bd e373 2ebc
00000050: a798 0f3c 3820 a03a 0d7e 803c 7666 613c
00000060: 6577 96bc 22f1 43bd 7ba7 89bc 3e5e 843a
00000070: a494 b1bc 8df8 c33c c165 663c 58c7 24bc
00000080: a0b6 31bd bb44 fcbc 61af 66bd e5e1 2a39
00000090: 4e7a cbba d64d 5e3d d161 51bc 47d9 40bd
000000a0: e61b 2cbd 8ce6 66bd c134 f2bc 99ec afba
000000b0: fcba cf3c f58f 00bc 3c76 16bd 787d 20bc
000000c0: 9bcb c6bd e9b4 8cbc 6b93 05bd a93b f83c
000000d0: 7302 3fbc fc70 e0bc c637 c4bc e46a cabd
000000e0: b48f eabb 0f63 1cbd c023 2b3d b9f4 56bc
000000f0: f79a acbc 3855 80bc 81da 88bd ab12 5dbc
00000100: c343 2fbb 3bde 3c3d 88b6 95bc 90d3 13bd
00000110: d4b2 91bc 354b 9ebd fbd3 b0bc eb03 1bbd
00000120: a72a 003d 13df 01bd e3fa 1fbd 0896 19bb
00000130: bfa6 b5bd 827d e6bc ceb9 3abc cf74 283d
00000140: 5c9c ccbb 1b17 f0bc 87c6 b3bc f72c 65bd
00000150: 8226 40bc cc0b e4bc 07fa c93c 770f ad3b
00000160: ce75 16bd 6556 9bbc c4f5 32bd bb4d 10bb
00000170: b111 09bd 3123 c03c 6290 18bc 4180 8bbc
00000180: 7cb3 a9bc 8a1d 73bd 5be9 f0bc cdb6 2abc
00000190: 38e6 163d e5c3 f738 f4fa 4cbb 2763 0ebb
000001a0: 6eda 1ebd 614e 1ebc 855f f0bc 8c99 993c
000001b0: 47f3 9abc 490d afbc 3c72 86bc b19e a9bc
000001c0: 34b4 8cbb 8090 5dbd 6a53 f53c 04af babc
000001d0: 64b2 d3bb 1b5e f3bc 5ddb 00bd ea9f 51bc
000001e0: 0ae9 d7bc 537c 8f3c ad46 27bd 92cb 73bc
000001f0: 70e2 babc 78b1 e5bc 65c0 c5bc e8cb d2bc
00000200: 4251 8e3c 3ce1 1ebc 483c ea3b 835f 76bc
00000210: c2c9 adbc 332d 5bbc 760b febc 4cde 083c
00000220: 4561 05bd 1a33 bfba 4017 37bc fa29 02bc
00000230: b907 d5bc a435 0c3a a01d 733c 2393 f4bc
00000240: f719 dd3c 32e8 613b a65f bdbc d700 c4bb
00000250: 855f e63c dca2 993b 6ebf f9bc a396 31bc
00000260: c70a 33bd 81a4 93bb 48f3 e2bc 97d2 ceba
00000270: 7130 1b3d 52ef 02bd f03e c33c 8484 9ebb
00000280: e95f e4bc 4857 6cbc fdce 163c 3e66 903c
00000290: 1636 dcbc cb01 bf3c 2d62 39bd 253f 0abd
000002a0: 4e6f 89bc 0406 a4bc 238e 0dbb 09ed 70bc
000002b0: 0e27 433c 57d0 bfbc 7329 23bd 768f e8bc
000002c0: aefb 15bc 47c8 eabb 1dd3 1abd 6334 023c
000002d0: 1c8c 9dbc fd72 62bd 65ca 04bc 96ca 03bc
000002e0: f69c 133c bb56 01bd 6cf5 833c cb58 1abc
000002f0: 865b a3bd 4abd 89bb 91a3 b5bc 5dfc 42bc
00000300: 7d03 9abc d44e 923c fced edbb 30ec 83bd
00000310: ee6d 3abc 92d1 d5bc 76b5 27bc cdee 3dbb
00000320: 9d47 8fba 804c 3eb9 0ec5 8abd 3930 683b
00000330: fd1c ffbc bb47 5cbc 326d d2bc ba3d 893c
00000340: b089 13bc ddb6 9abd 5d87 0cbc 7e70 3dbc
00000350: 88b6 95bc cc5f b8bb dbb8 bc3a b0b9 08bc
00000360: 3d0f 85bd 2ec3 3fbc a028 08bd d88d 1fbd
00000370: 35fb 01bc f2d5 353d 15c0 493c 7ca2 74bd
00000380: 0b1e ce3a dc84 09bd 7cc7 f6bc 8df2 533c
00000390: ab7c b53c b836 f3bc 7be5 08bd 407a 923a
000003a0: a511 07bd 8f3e d0bc 827a e03b 7e41 c93b
000003b0: c960 31bc 4f9f 44bd d8e5 553b c17d 4bbd
000003c0: 670b dfbc bb91 7f3a 2bcb 193c 9901 e7bb
000003d0: 6404 bcbc 98b6 d4bb 513c 03bd 722d cbbc
000003e0: e08f a5bb bfb0 c33c 4006 69bc 17ee 85bc
000003f0: 36e0 073a 1958 19bd 14d2 92bc ce73 bdbb
-0.019007616 -0.015587468 0.034162283 -0.01738078 -0.06261329 -0.018069781 0.056979112 -0.013087809
0.01804348 0.023646846 -0.019383801 -0.037855074 -0.019031622 0.019463398 -0.006539962 0.03488179
0.03368817 -0.013224597 -0.04311798 -0.010647747 0.0087644225 0.0012216633 0.015685106 0.013757339
-0.018367479 -0.047837384 -0.016803494 0.0010098887 -0.021677323 0.02392223 0.014062346 -0.010057293
-0.043387055 -0.030794492 -0.056319598 0.00016296616 -0.001552412 0.05427345 -0.012779669 -0.04708221
-0.042018794 -0.05637221 -0.02956617 -0.0013421952 0.025357716 -0.007846822 -0.03673385 -0.009795539
-0.097068034 -0.017176108 -0.03261129 0.030301886 -0.011658299 -0.027397625 -0.023952376 -0.09883669
-0.007158244 -0.038180407 0.04178214 -0.01311987 -0.021069987 -0.015665635 -0.06682301 -0.01349322
-0.002674327 0.046110373 -0.018275514 -0.036090434 -0.017785467 -0.07729188 -0.021585455 -0.037845533
0.031290676 -0.03170688 -0.039057624 -0.0023435373 -0.08869695 -0.028136019 -0.011396838 0.041127022
-0.0062442254 -0.029307893 -0.021945251 -0.055951085 -0.011727931 -0.027837656 0.024655355 0.0052813846
-0.03673344 -0.018962095 -0.04369141 -0.0022018987 -0.033464137 0.02345428 -0.009311767 -0.01702893
-0.020715468 -0.059354343 -0.029408148 -0.01041956 0.036840647 0.00011814366 -0.003127751 -0.002172658
-0.03878253 -0.009662242 -0.029342422 0.018749975 -0.018914832 -0.02136864 -0.016411893 -0.020705553
-0.004293943 -0.054092884 0.029947001 -0.022788532 -0.006460475 -0.029707959 -0.0314592 -0.012794474
-0.026356239 0.017515337 -0.040838886 -0.014880078 -0.022813052 -0.028038725 -0.024139592 -0.025731996
0.017372731 -0.009697255 0.0071482994 -0.01503742 -0.02121437 -0.013377476 -0.031011324 0.008353781
-0.032563467 -0.0014587373 -0.011174977 -0.007944578 -0.026004659 0.0005348569 0.014838606 -0.029855317
0.02698992 0.0034470675 -0.023116898 -0.0059815454 0.02812172 0.004688604 -0.030486789 -0.010839137
-0.04371145 -0.0045056944 -0.027703896 -0.0015779313 0.037887994 -0.031966515 0.023833722 -0.0048375744
-0.027877765 -0.014425106 0.009204623 0.017626878 -0.026881259 0.023316285 -0.045259643 -0.033751626
-0.016776707 -0.0200224 -0.0021599613 -0.014704951 0.011911167 -0.023414774 -0.03983445 -0.02838872
-0.009154243 -0.007164988 -0.03779899 0.00794706 -0.019231848 -0.055285443 -0.008104895 -0.008043906
0.00900959 -0.031576853 0.016108237 -0.009420584 -0.07976441 -0.004203473 -0.022172721 -0.011900988
-0.018800491 0.017859854 -0.007261036 -0.064415336 -0.011378748 -0.026100907 -0.010236135 -0.0028981448
-0.0010931377 -0.0001814831 -0.067758664 0.0035429134 -0.031141752 -0.013444836 -0.025686834 0.016753066
-0.009004995 -0.0755441 -0.008577195 -0.011562465 -0.018275514 -0.0056266543 0.0014398353 -0.008345053
-0.06497047 -0.011704249 -0.033241868 -0.038953632 -0.007933428 0.044393487 0.012313862 -0.05972527
0.0015725506 -0.03357397 -0.030124418 0.012936247 0.022154173 -0.029689178 -0.033421975 0.0011175349
-0.03297581 -0.025420455 0.0068505416 0.0061418405 -0.010826298 -0.04800349 0.0032638218 -0.049680475
-0.027227117 0.00097491936 0.009386818 -0.007049751 -0.022951312 -0.0064914934 -0.032039944 -0.024801943
-0.0050525516 0.02388799 -0.0142226815 -0.016348882 0.00051832513 -0.037437532 -0.017922439 -0.0057816273
