gain/classfy_weight/1868617106871301337/D_b3.npy (npy, 2720 bytes, 1 tensors)

array f4 [648]
0	0xbd7e427a	-0.062075116
1	0x3a831765	0.0010001479
2	0xbbc14d1b	-0.0058990843
3	0x3cc19050	0.023628384
4	0xbce2b5a7	-0.02767451
5	0x3d727adb	0.059199195
6	0xbc91d868	-0.017803386
7	0xbc2295da	-0.009923423
8	0x3bc5c19a	0.006035042
9	0x3bd33fb2	0.006446802
10	0x3c3db45f	0.011578648
11	0x3bb92a56	0.005650799
12	0xbcf54632	-0.029940698
13	0x3ac07576	0.0014683444
14	0x3aa88ca2	0.0012859295
15	0xba5caec8	-0.00084183784
16	0x3c86a4b0	0.016435951
17	0xbc68e7d8	-0.014215432
18	0xbc96018c	-0.018311284
19	0x3978288e	0.00023666231
20	0xbcaa0ee4	-0.020759054
21	0xbcaf9241	-0.021432044
22	0xbc430e0f	-0.011905207
23	0xbd46ef17	-0.048567858
24	0xbcd90646	-0.02649225
25	0xbd94447d	-0.072396256
26	0xbcfcd1ea	-0.030861814
27	0xbcb35393	-0.021890437
28	0xbc96eda6	-0.018423866
29	0xbc93a433	-0.018022632
30	0xbb13d195	-0.002255534
31	0x399b5636	0.00029628136
32	0xbc9ceaf0	-0.019154996
33	0xbc4f0b0b	-0.01263691
34	0xbd211bf3	-0.039333295
35	0x392e3753	0.00016614543
36	0xbd860823	-0.06544521
37	0xbd3fe0b3	-0.04684515
38	0xbccf83c4	-0.025331385
39	0xbc5b8bf7	-0.013400069
40	0xbd5b4443	-0.053531896
41	0x398a769c	0.00026409782
42	0x3c5109a3	0.012758645
43	0xbc6a97da	-0.014318431
44	0x3c5f10ad	0.013614816
45	0xbd1922c0	-0.037386656
46	0x3b1e6562	0.0024169316
47	0xbd0b0982	-0.033944614
48	0xbd0b62a9	-0.034029637
49	0xbced61e7	-0.028977348
50	0xbc9ae94b	-0.01891007
51	0xbc82e608	-0.015978828
52	0x3cfe30b6	0.031029087
53	0xbcbcd551	-0.023050936
54	0xbce556f6	-0.027995568
55	0x3a35e903	0.00069393235
56	0xbbdfc0de	-0.0068284115
57	0x3d0e69a2	0.034768708
58	0x3c14d3d8	0.009083711
59	0xbcc730dd	-0.024315292
60	0x3adab2fa	0.0016685419
61	0xbbb20011	-0.005432137
62	0xbccb688b	-0.024830123
63	0xbb3916e8	-0.0028242413
64	0xbb9f205f	-0.004856154
65	0xbd1491f3	-0.036272
66	0xbcec7109	-0.028862493
67	0xbcb39bc0	-0.021924853
68	0xbda29db7	-0.07940238
69	0xbb27d30d	-0.0025607974
70	0xbcd7b4db	-0.026331356
71	0xbd24d2fd	-0.040240277
72	0x3af14386	0.0018406964
73	0xbc108424	-0.008820567
74	0x3c8bb3fd	0.017053599
75	0xbb5583a7	-0.0032579692
76	0x3c9f8e0b	0.019476911
77	0xbbc14130	-0.0058976635
78	0xbc0acd80	-0.008471847
79	0xbd875098	-0.06607169
80	0xbce22608	-0.027606025
81	0xbcc8aaba	-0.024495471
82	0xbd5ba17f	-0.05362081
83	0xbc48e3a2	-0.012261303
84	0xbc166816	-0.009180089
85	0xbc091f9d	-0.008369354
86	0xbd15babf	-0.036555048
87	0xbc61c364	-0.013779495
88	0x3b9cfc64	0.0047908295
89	0xbb91e125	-0.004451888
90	0xbb810bfc	-0.003938196
91	0xbd1c7362	-0.038195975
92	0xbc89c376	-0.016816836
93	0xbbd55682	-0.0065105567
94	0xbcf2060e	-0.029543903
95	0xbba5af2b	-0.005056282
96	0x3c0ef501	0.008725406
97	0xbc094ca6	-0.008380091
98	0xbd3ff28b	-0.046862166
99	0xbcb8e08f	-0.022568015
100	0xbc7ab03a	-0.015300805
101	0xbcb14342	-0.021638516
102	0x3c28188a	0.010259757
103	0x3b01f479	0.0019829555
104	0xbd2b382d	-0.04180162
105	0xbc61b803	-0.013776782
106	0x3c66556e	0.014058454
107	0x3c6cbed9	0.0144497985
108	0x3ced45ed	0.028964007
109	0xbcb9983e	-0.022655603
110	0xbbe7d285	-0.0070746564
111	0x3c882f7c	0.016624205
112	0x3ca7a97c	0.020466559
113	0xbcc0df8e	-0.0235441
114	0xbd1b0ac6	-0.03785207
115	0xbd0c837f	-0.034305092
116	0xbb1b8b21	-0.002373405
117	0xb97c7c58	-0.00024078914
118	0x3c6c0d6e	0.014407499
119	0x3c69d945	0.0142729925
120	0xbbe40706	-0.006958845
121	0xbc9e8eeb	-0.019355258
122	0xbc056315	-0.008141299
123	0xbcc5055f	-0.024050413
124	0xbd690c25	-0.056896348
125	0x3d0d4acd	0.034495164
126	0xbbc9c156	-0.0061570806
127	0x3c485999	0.012228393
128	0xbc4d7733	-0.012540626
129	0xbc8b6c45	-0.0170194
130	0x3c16ef6a	0.009212354
131	0x3c9c8654	0.019107021
132	0xbc69a574	-0.0142606385
133	0xbd07dc3d	-0.03316902
134	0xbb1042f3	-0.002201256
135	0xbcd77ab6	-0.02630363
136	0x3b15c9f5	0.0022855971
137	0x3c81500c	0.01578524
138	0xbcb033a1	-0.021508994
139	0x3b7d034a	0.0038606697
140	0x3c7caa14	0.015421409
141	0xbcd3e269	-0.025864797
142	0xbbbf95c6	-0.005846712
143	0xba87e9cd	-0.0010369361
144	0x3cd7c026	0.02633674
145	0xbc61f5d3	-0.013791519
146	0x3becd7cb	0.007227873
147	0xbc875546	-0.016520154
148	0xbca92be2	-0.020650808
149	0xbd00d627	-0.03145423
150	0x3c959b84	0.018262632
151	0xbc208655	-0.009797652
152	0x3d1b22c8	0.037874967
153	0xbc7b44ac	-0.015336197
154	0x3c96fb79	0.018430458
155	0xbc3659da	-0.011129821
156	0xbcdbf862	-0.026851837
157	0xbd3dcdca	-0.046338834
158	0xbd62a495	-0.05533274
159	0xba73d1e1	-0.0009300989
160	0xbca6b767	-0.020351125
161	0xbcc097c0	-0.02350986
162	0x3ca5b22f	0.020226566
163	0xbc470e7a	-0.012149448
164	0xbbeb48ae	-0.007180295
165	0xbb6ce9a0	-0.0036149994
166	0xbd121bc7	-0.03567102
167	0x3b9e2d46	0.0048271744
168	0xbc831abf	-0.016003964
169	0xbb8680ca	-0.0041047083
170	0xbd4a69a7	-0.049417164
171	0xbd1066f2	-0.035254426
172	0x3c83725d	0.016045744
173	0x3baf7c66	0.0053554056
174	0x3c46dad6	0.0121371355
175	0xbc9853b3	-0.018594598
176	0xbc7fb12b	-0.015606205
177	0xbd3fb886	-0.046806835
178	0x3a5f61ce	0.0008521349
179	0x3bbaf4fa	0.005705473
180	0xbd7de4f3	-0.06198592
181	0xbce34429	-0.027742462
182	0xba8ea070	-0.0010881554
183	0xbbca8be9	-0.0061812294
184	0xbc8915f1	-0.016734095
185	0xbc6e82a5	-0.014557515
186	0xbc0942f6	-0.008377781
187	0xbc4ccaf4	-0.01249956
188	0xbcda29fe	-0.026631352
189	0xbcac85c0	-0.02105987
190	0xbd04bd0e	-0.03240686
191	0x3c238ab5	0.009981801
192	0xbcdb7165	-0.02678747
193	0x3c82b2f9	0.015954481
194	0x3cc5fc2f	0.024168102
195	0x3bee37aa	0.0072698193
196	0x3bccdbbf	0.0062517817
197	0xbba8020b	-0.0051271967
198	0xbc906d84	-0.017630346
199	0xbcf02749	-0.029315608
200	0xbbb0c0a4	-0.0053940583
201	0xbb5a58c9	-0.003331708
202	0xbc9cb4a8	-0.019129112
203	0x3c980f3b	0.01856195
204	0x3c6a499f	0.014299779
205	0xbcbacc6d	-0.022802556
206	0x3c1d407c	0.009597894
207	0xbd04f591	-0.032460753
208	0xbc63e18e	-0.013908757
209	0xbd5659ea	-0.052331842
210	0xbc8896f9	-0.016673552
211	0x3c5d216a	0.013496736
212	0xbb8cb59d	-0.004294111
213	0xbd58b8a9	-0.05291048
214	0xbcb2e5a9	-0.021838026
215	0xbca8570e	-0.020549323
216	0xbd156cc7	-0.03648069
217	0xbd08e95b	-0.03342567
218	0x3c571b59	0.013129079
219	0xbd1f6973	-0.038918924
220	0x3b63987f	0.0034728346
221	0xb9931645	-0.00028054617
222	0xbc5be3d2	-0.013421016
223	0x3bd03946	0.006354484
224	0x3d3712d9	0.04469571
225	0x3b544ae9	0.0032393283
226	0xbcb2db7f	-0.02183318
227	0xbbc2dedf	-0.0059469785
228	0xbd08e429	-0.033420715
229	0xbbd5e9ba	-0.0065281065
230	0xbcfe6d81	-0.031058075
231	0xbcad0766	-0.021121692
232	0xbcf9a1d3	-0.030472672
233	0xbcbf3d8c	-0.023344778
234	0xbc1ebca4	-0.00968853
235	0xba16a8d5	-0.0005747204
236	0xbcc6123d	-0.024178619
237	0xbd78585a	-0.060631134
238	0xbcc55e0a	-0.024092693
239	0xbb60f7c5	-0.003432737
240	0xbd2bd6c5	-0.041952867
241	0xbd737b7d	-0.05944394
242	0x3bd59d76	0.006519015
243	0xbd04a6df	-0.032385703
244	0xbc968e61	-0.018378438
245	0xbc04ad0e	-0.0080979
246	0xbc8c3b95	-0.017118255
247	0xbd26754e	-0.040639214
248	0x3cb94dbb	0.022620073
249	0x3ca66696	0.020312589
250	0xbd134790	-0.03595692
251	0xbbafc33f	-0.0053638513
252	0xbd31e6fa	-0.043433167
253	0x3c136806	0.008996969
254	0xbd20c966	-0.03925457
255	0x3cffa49b	0.03120642
